models/agent_left.pth (torch, 294261 bytes, 24 tensors)

fc1.weight f4 [128, 6]
000000 7c 86 12 bf 6b c0 ff 3e fe b9 84 be 7a 1b 8d 3d
       -0.57236457 0.4995149 -0.2592315 0.06890006
000010 7e 47 9f be 53 33 79 be 84 c0 eb be 15 06 50 be
       -0.31109232 -0.24335985 -0.46045315 -0.2031482
000020 66 99 db be 13 64 a3 3a 06 e6 31 bd ac 07 31 3e
       -0.4289047 0.0012465738 -0.043432258 0.17288083
000030 65 00 b7 be 4c 2f 14 be 08 85 b4 be ff 04 ce 3c
       -0.35742489 -0.14471167 -0.35257745 0.025148867
000040 d2 51 ea 3e 11 0b f9 3d ff 62 69 3e a8 b9 22 bf
       0.4576555 0.12160314 0.2279167 -0.6356454
000050 3e c7 79 be 0a a3 ab be 77 cf d6 bd 6f c4 b2 3e
       -0.24392411 -0.33522826 -0.104887895 0.34915492
000060 91 0f f3 3e 0c bd 6c be 95 cd 76 3e f5 68 27 3e
       0.47472814 -0.2311899 0.24101861 0.16348632
000070 6c 65 05 be f5 a3 d7 3e 74 d1 28 be 0d eb 20 3e
       -0.1302697 0.42117277 -0.1648615 0.15714665
000080 28 4d 8b 3e bb 74 b8 bb 2f a7 1f be 5b dc f2 3d
       0.27207303 -0.0056291497 -0.15591119 0.11858436
000090 02 6f 0c be 2b f3 65 be 0c 2d 33 3e e3 64 cf bd
       -0.13714221 -0.22456042 0.17497653 -0.101266645
0000a0 1f 23 6d 3e 20 c8 7a 3e 0f ab 2b bf 2a c5 70 3e
       0.23157929 0.24490404 -0.6705789 0.23512712
0000b0 b0 51 db be a6 fb 8c 3e 8f 9f a4 3d a8 12 44 3e
       -0.4283576 0.27535743 0.08038246 0.19147742
0000c0 7f c9 4f 3e 0b 19 20 3e fb aa 99 3e 96 04 c7 bd
       0.20291708 0.15634553 0.3001326 -0.097176716
0000d0 c8 0b 89 be 20 98 b7 be f2 01 8b be 3d 54 be be
       -0.267668 -0.3585825 -0.27149922 -0.37173644
0000e0 3c 69 6c 3e b5 8e 3f bd 8d ed 01 3f e7 c1 eb 3d
       0.23087019 -0.046766955 0.507531 0.11511593
0000f0 34 b6 a4 bd 9e a2 82 bd f5 ff ed 3d f8 b4 a1 be
       -0.08042565 -0.06378673 0.116210856 -0.3158338
000100 27 8d 94 3d 2f 2d 81 3e 3d 7f dc 3e 14 58 f9 bd
       0.07253485 0.25229785 0.43065825 -0.12175003
000110 8e c9 59 3e 6a 86 cc be c9 ff 54 bd ec 21 b7 3e
       0.21268293 -0.399463 -0.05200175 0.35768068
000120 29 c5 d2 be eb 8e 62 be a4 82 f2 3e 08 43 1c be
       -0.41166046 -0.22124831 0.47365296 -0.15259945
000130 e1 6e b7 3d bf e8 db 3e bd 69 8f 3d 75 8b ad be
       0.08956695 0.4295101 0.0700259 -0.3389546
000140 a2 14 89 3e b5 0c be be d2 b3 0c 3e b6 9c 36 bd
       0.26773554 -0.3711907 0.13740471 -0.044583045
000150 b3 d2 95 3e 52 af 3b 3e 62 66 29 3e 78 93 3a 3d
       0.29262313 0.18328598 0.16542962 0.045550793
000160 bc 1d 50 3e 02 6c 7f 3e 0d db 86 3e 59 ce 45 bd
       0.20323843 0.24943545 0.26338997 -0.04829249
000170 ea 5c 66 3e 60 8d ae be 86 fc 61 bc 51 72 35 be
       0.22496381 -0.34092236 -0.013793116 -0.1771939
000180 58 83 0f 3d bf 07 95 be 3f 37 05 bf 57 02 76 be
       0.03503737 -0.29107472 -0.52037424 -0.2402433
000190 79 6b 81 3d 8f e0 8a 3d c5 7d 8e be 16 0b 17 bd
       0.06319327 0.067811124 -0.2783033 -0.036875807
0001a0 cd 3a 8e bc 76 ef f9 be be ea 1c bf c6 b2 91 3e
       -0.017362023 -0.48815507 -0.6129569 0.28456706
0001b0 5b 38 16 bf bf fe d5 3d 55 7b eb be 1b 36 9b 3d
       -0.5867974 0.104489796 -0.45992532 0.07578679
0001c0 f9 b9 08 be 0c 46 cd 3e 38 8c 5c 3e 2b b0 13 be
       -0.13352193 0.40092504 0.21537864 -0.14422671
0001d0 ed 28 10 3f 28 a1 0e 3e b0 e0 91 3e 0b b9 02 3e
       0.5631245 0.13928664 0.28491735 0.12765901
0001e0 fd 37 73 3e 37 17 d4 be 85 81 d9 bd f1 6f 03 bf
       0.23751827 -0.41423962 -0.10620407 -0.51342684
0001f0 81 a1 19 bd 7f 33 a5 3e 26 ec 3d be 47 a6 45 be
       -0.037507538 0.3226585 -0.18547115 -0.19301711
000200 2f bd ec be 25 b8 c1 be 13 88 a8 3e a6 bc 54 3e
       -0.46238086 -0.37835804 0.32916316 0.20775089
000210 53 4c 35 3e d0 67 da be f1 99 79 bc 34 ab d2 bc
       0.17704897 -0.42657328 -0.015234456 -0.025716402
000220 44 c6 95 3b fe c7 ed 3e 16 05 f6 3d d7 b8 08 bf
       0.0045707542 0.46441644 0.12012689 -0.53407043
000230 f0 95 50 3c 89 9d e2 be 26 cf b5 3e af c5 08 be
       0.01273106 -0.44260815 0.35509604 -0.1335666
000240 da 58 ba 3d 53 e9 b0 be 9e ff 5e be b6 9c 86 be
       0.09098978 -0.34553012 -0.21777198 -0.26291436
000250 a1 f0 23 be 6b 91 c9 3d be 60 9f 3e 39 39 c1 bd
       -0.16009761 0.098421894 0.31128496 -0.094347425
000260 87 cc 0a 3f df bb ee bd 64 94 1a be c0 10 86 3d
       0.54218334 -0.11656927 -0.15095669 0.065461636
000270 a7 db 2f 3e 98 c3 4c be 0b f5 78 be 40 2b 14 bf
       0.17173634 -0.19996488 -0.24312226 -0.57878494
000280 93 95 91 bd 98 1c 10 be 7b 50 2a 3e e4 32 60 be
       -0.07108607 -0.14073408 0.16632263 -0.21894413
000290 b8 2b 24 3e 43 c7 ea be bc a4 88 be a2 a5 b6 3e
       0.16032302 -0.4585515 -0.26688182 0.35673243
0002a0 62 13 59 3d 4d 43 a4 3d 0d fd 04 be 4c 58 c0 3e
       0.052997 0.08020649 -0.12987156 0.37567365
0002b0 ba df 82 3d 05 c5 e5 be 06 d6 6f bf 1e 2c d9 be
       0.06390329 -0.44876876 -0.9368595 -0.4241647
0002c0 72 ac 03 be b3 ee 6c bc 0d 86 fa 3e 07 70 1f be
       -0.12858751 -0.014461207 0.48930398 -0.15570079
0002d0 ae 84 67 be 12 39 ad be ef d4 a0 be 2e 23 84 be
       -0.22609207 -0.33832604 -0.31412455 -0.2580809
0002e0 ce 30 70 be 72 4c 9c 3e ce d5 d5 bf 34 b8 1e be
       -0.23456118 0.30527073 -1.6705873 -0.15499955
0002f0 63 b4 12 bd e5 6c 10 3d 8c e0 20 3e 02 23 e7 3b
       -0.03581656 0.0352601 0.15710658 0.007053734
000300 da a9 fe be 4a da 98 be 31 75 68 bd 36 37 4e be
       -0.4973896 -0.2985404 -0.056752387 -0.20138249
000310 bc b6 e9 3e a2 54 91 3e 5d 0f 10 3e e1 30 d8 3d
       0.45647228 0.28384882 0.1406836 0.10556198
000320 47 f0 8e bd a5 65 bd 3e f5 6d 9f be 37 42 10 be
       -0.06979423 0.3699161 -0.31138578 -0.14087759
000330 81 b8 df 3e e9 6b da 3e 14 f9 88 be 31 8c d6 3e
       0.43695453 0.42660454 -0.26752532 0.41903833
000340 50 ab 83 3e fb f8 bd be a3 43 08 bf a8 2d c9 3e
       0.2571664 -0.3710402 -0.53228205 0.39292645
000350 87 7b 62 be fc 12 d3 bd 2e b9 31 be 8a d3 a6 3e
       -0.22117434 -0.10306355 -0.17355797 0.32583266
000360 b5 9b dc bd ec 92 58 bd 79 fb b7 3e 6c 9f 67 be
       -0.10771886 -0.05287449 0.35934046 -0.22619408
000370 35 11 92 3e 91 9c d7 3d 91 c4 2d bd 00 a0 1d be
       0.28528753 0.105279095 -0.04242379 -0.15393066
000380 66 6c 6a bd 78 03 5e be fb a1 8b be ee 84 08 3e
       -0.057232283 -0.2168101 -0.2727202 0.13331959
000390 90 35 ba be 40 aa 5f 3e f4 09 1f 3e 45 49 be bd
       -0.3636899 0.21842289 0.1553114 -0.09291319
0003a0 ae 85 06 be eb 78 5e be f8 c5 a6 bb 74 d9 7b 3e
       -0.13136932 -0.21725814 -0.0050895177 0.2459467
0003b0 eb 08 49 be e1 aa 80 3d c0 e0 9d bd 74 0f f8 bd
       -0.19632308 0.062825926 -0.07708883 -0.121123224
0003c0 bb f5 c2 3d a7 49 d9 be 81 e1 de be b0 49 66 be
       0.095195256 -0.42439005 -0.4353142 -0.22489047
0003d0 f4 68 b1 be fb ad 2b 3e 43 e2 09 bc 4e 96 08 bc
       -0.34650385 0.16765587 -0.008415761 -0.008336617
0003e0 e7 9b bc bb d1 42 1c be 17 0c b3 b9 f7 87 96 bd
       -0.0057558897 -0.15259863 -0.00034150548 -0.07350152
0003f0 b9 c1 79 bd 77 c0 a7 3e c9 b4 da 3e 9f a0 90 3c
       -0.060975764 0.32764027 0.42716053 0.017654715

fc1.bias f4 [128]
000000 09 20 82 39 8f 8d 8f bd 99 89 62 be 2e 89 6d 3e
       0.000248194 -0.07009422 -0.22122802 0.23196861
000010 39 10 a3 be cd b4 bc 3e 37 3f d1 bd 25 43 ae bd
       -0.31848314 0.3685669 -0.102171354 -0.085089006
000020 4c 25 48 3d 8e 91 bf 3e a5 34 80 be b2 31 c1 be
       0.048863694 0.37415737 -0.25040165 -0.37733227
000030 2e 6b 6a be ed 88 a6 3d af 19 26 3e e8 85 fe 3c
       -0.22892448 0.08131585 0.16220735 0.03106971
000040 a8 3a 93 be 0b 93 19 3e 0a ee 10 be d9 3b 3b be
       -0.2875569 0.14997499 -0.14153305 -0.18284549
000050 1c 2c 39 be 50 fa 04 3e 99 3a 21 be 90 dd 8e 3e
       -0.18083233 0.12986112 -0.1574501 0.27903414
000060 d7 60 0e 3e a2 eb a1 bb 0d b6 bc be 52 ab a8 bd
       0.13904129 -0.0049414197 -0.36857644 -0.08235802
000070 7a fb e6 be b9 b6 bf 3e 83 35 2a 3e f9 78 e1 3d
       -0.45113736 0.37444094 0.16621976 0.11009402
000080 49 da f0 3d bc 87 6e 3e 7e 8d ba be e5 2d 82 be
       0.117603846 0.23293966 -0.36436075 -0.2542564
000090 d5 27 e7 3d 02 7e 2b 3e 3d 09 15 3e 0d 3e 89 3e
       0.11286894 0.16747287 0.14554305 0.26805153
0000a0 88 3c 49 3e c0 45 2f 3d e5 b2 f9 3d 86 88 15 3e
       0.19651997 0.04279113 0.121923245 0.14602861
0000b0 e6 39 40 be ce 5c 48 be de ed da be 34 a2 a5 3e
       -0.18772087 -0.19566652 -0.42759603 0.32350314
0000c0 b2 1d 8b be 90 66 64 be e1 f4 c2 bd e5 44 23 be
       -0.27171093 -0.2230475 -0.09519363 -0.1594425
0000d0 40 d4 b3 3e f6 20 0d be 37 bf fe 3d bf 91 75 3e
       0.3512287 -0.13782105 0.12438815 0.23981379
0000e0 fb ac 09 3e d6 54 3b 3e 8b d4 c0 3d 91 98 85 3e
       0.13444893 0.18294081 0.09415539 0.2609296
0000f0 e2 e5 c9 be 0b 2c 4a 3d 83 62 91 3e 77 b4 9d bd
       -0.394332 0.04935841 0.2839547 -0.077004366
000100 92 bf 91 3d 32 33 c6 3d 22 88 77 be 2f 34 b6 be
       0.07116617 0.096777335 -0.24173024 -0.35586688
000110 35 cf e8 3e 86 ae ab 3e e4 3a 77 3e b4 5e 9d bd
       0.45470586 0.33531588 0.24143559 -0.07684079
000120 ad ea 34 3d 79 66 6c 3e 8d 1f fc bd 81 5e af be
       0.044169117 0.23085965 -0.12310705 -0.34251788
000130 48 cf bf be 77 9b 1b 3e 96 e8 ae be 86 50 08 3e
       -0.3746283 0.15196024 -0.34161824 0.13311967
000140 4c 5b 89 3e 68 93 76 3d 51 9a 99 be 9a bb 65 be
       0.26827466 0.06019917 -0.30000547 -0.22434846
000150 a0 82 b4 bd 94 98 db bc e2 70 ab be 61 e6 ca bd
       -0.08813977 -0.026806153 -0.3348456 -0.099072225
000160 d8 37 7e 3e 78 83 7b be b3 0b 83 3e ea d8 0b be
       0.2482599 -0.2456187 0.25594863 -0.13656965
000170 89 c3 1e 3e 47 f1 cc be c3 9b 59 be e0 cd 4e be
       0.15504278 -0.4002783 -0.21250825 -0.20195723
000180 81 9c 18 be 33 f6 a6 be 70 4c 49 bd df eb 29 3d
       -0.14903452 -0.3260971 -0.049145162 0.04148471
000190 1e 13 6a 3c 47 87 a9 3e be f9 5c 3e 33 bb b6 3e
       0.014286784 0.3311102 0.21579644 0.35689697
0001a0 73 4d e0 3d 66 88 cd 3d c5 34 2d be 2c 12 d6 3e
       0.10952272 0.100357816 -0.16914661 0.4181074
0001b0 77 a8 9e 3d b2 14 46 be cb f9 79 be 0a ec 50 be
       0.07746976 -0.19343832 -0.24411695 -0.20402542
0001c0 80 ad aa be 84 39 5c 3e ca fb 83 3e 15 31 cf 3d
       -0.33335495 0.21506315 0.25778037 0.101167835
0001d0 08 a1 a5 3e ee cd 8e bd 74 82 8f bc 00 06 4c be
       0.3234942 -0.06972872 -0.01751826 -0.19924164
0001e0 1c be c8 3e 87 42 89 3e 02 c2 bd 3e d0 07 34 3e
       0.39207542 0.2680857 0.3706208 0.17581105
0001f0 bf 3f 4a bc 92 69 48 be 28 cf 08 bf 7f 85 8f 3e
       -0.0123443 -0.19571522 -0.53441095 0.28031537

fc2.weight f4 [128, 128]
000000 62 a2 8b 3d 20 81 79 bc a3 49 c1 3c b8 d8 aa bd
       0.068180814 -0.01522854 0.023594683 -0.08342117
000010 fb f3 e3 3c 59 92 51 3d d1 9c 20 3c af a7 c9 bc
       0.0278263 0.05116496 0.009803013 -0.02461609
000020 b8 13 0d 3d 63 b4 4a bd a5 46 a6 bd b2 e6 89 bd
       0.034442633 -0.049488436 -0.08118943 -0.06733455
000030 db 4c e0 bc a5 a4 ad bc 3b 39 63 3d 7f d7 e6 bc
       -0.027380398 -0.021196673 0.0554745 -0.028178928
000040 29 91 87 3d 80 76 5a 3c 39 9f ad 3b fc a4 a5 3d
       0.06619484 0.013333917 0.005298522 0.08088109
000050 63 a5 8b 3d a0 80 ca 3c 05 90 e4 bc 3d eb b9 bd
       0.068186544 0.024719536 -0.027900705 -0.09078071
000060 25 3a 9c 3d f5 64 bf bd c4 92 e1 3c 72 4e 9e bd
       0.07628278 -0.09345428 0.027535804 -0.07729806
000070 75 73 96 bd a6 79 01 bd 33 24 75 3d f1 6f 59 bd
       -0.073462404 -0.031610154 0.059848975 -0.05308527
000080 a1 ea 2f 3d 57 1e 85 ba 97 eb 84 bd 96 a4 dd bc
       0.04294837 -0.0010156137 -0.06490248 -0.02705602
000090 c9 74 a2 bd d9 0f ff 3c 3d 79 b1 bd f4 0d 13 bd
       -0.07932431 0.031135486 -0.086657025 -0.03590198
0000a0 b6 f3 8f bd 4a 38 e3 3c 7c bf a8 3c 01 d7 6f bd
       -0.07028906 0.027736802 0.02059912 -0.058554653
0000b0 b1 98 52 3d 74 c1 9d 3d e7 9c 50 bd 25 d2 74 bd
       0.05141515 0.07702914 -0.050930884 -0.059770722
0000c0 66 bb 13 3d c5 82 26 bd 94 73 e9 bc 34 a3 d7 39
       0.03606739 -0.040652055 -0.028497495 0.0004112959
0000d0 ef f1 1c 3d 3a 1a 1f bd b3 60 49 b7 5a 95 aa bd
       0.038316663 -0.03884337 -1.2003048e-05 -0.08329268
0000e0 4f 2d 5a 3d 2d 28 23 3b 28 41 4b 3b b1 72 1f 3d
       0.053265866 0.0024895773 0.0031014178 0.038927738
0000f0 d0 7c bb 3b 60 8e d3 bb 46 22 b1 bd 40 7e 71 3d
       0.005721666 -0.0064561814 -0.08649115 0.058958292
000100 25 ea b6 bc 66 65 51 bb d4 fe 97 bd a4 c4 ed 3c
       -0.022328446 -0.0031951307 -0.074216515 0.02902443
000110 35 51 1e 3d 56 5c f5 3c 94 b1 fb 3c bf 61 c6 bd
       0.038651664 0.029951256 0.030724324 -0.09686612
000120 b8 33 6d bd 9a 14 1f 3d a0 45 7d bc cc cd 03 3d
       -0.05791065 0.038838007 -0.015458494 0.032178685
000130 00 b2 02 ba 58 e0 5e 3c 73 25 2c 3d 98 fd 95 3d
       -0.00049856305 0.013603292 0.0420279 0.0732376
000140 ae ee ad 3c 10 4c 2e bd 79 7b 29 3b d5 29 11 bc
       0.021231975 -0.042553008 0.002586095 -0.008860071
000150 70 16 98 bd 95 d3 be bc 6f 88 0a 3d df cb 51 3b
       -0.074261546 -0.02329425 0.03382152 0.0032012386
000160 00 43 92 bd ca 00 88 bb 62 80 ad bd 54 09 93 bd
       -0.071416855 -0.0041504847 -0.08471753 -0.071795136
000170 09 3e c6 3c cb bb 4e bd 39 ca 12 bd 3b 96 86 3c
       0.024199503 -0.050472062 -0.035837386 0.016429057
000180 e8 a1 61 bd 49 3c ed 3c 78 79 53 bc 72 cc c5 bb
       -0.055086046 0.02895941 -0.012907378 -0.0060363347
000190 5c 92 96 bd be f1 f9 bc 31 7d d1 bc 08 a9 ba bd
       -0.073521346 -0.03051078 -0.025572391 -0.091142714
0001a0 9d 5f 16 3b 3f bb 0a 3d 32 bd 67 ba db 7d 5d bc
       0.0022945174 0.033869978 -0.0008840143 -0.013518776
0001b0 6a 82 06 3d 65 82 b1 3a b5 a2 55 3d ac 90 d2 3c
       0.032839216 0.0013542889 0.052157123 0.02570375
0001c0 4b 25 b7 bd 28 06 6d 3c 59 b9 a3 3d 71 33 6c bd
       -0.0894266 0.0144668 0.07994337 -0.057666246
0001d0 e4 9a 2b bd 46 de 98 3c af 93 0e bd 1e 5e eb bc
       -0.041895762 0.018660676 -0.03480881 -0.028731402
0001e0 5b 27 9b bd 65 fb 82 3d f2 86 c2 3c 8a 85 c4 3b
       -0.07575866 0.06395606 0.023745988 0.0059973644
0001f0 02 2b 7d bd c0 d0 f7 3b fb e0 11 3b 04 37 6b bd
       -0.061808594 0.0075627267 0.0022259343 -0.057425514
000200 9f e3 2a bd c9 55 09 3d 69 e1 96 bd 38 04 96 3b
       -0.041720983 0.033529077 -0.07367212 0.0045781396
000210 9a 95 6d bd ed 4b c9 3c f9 39 dc bc 59 df 9d 3c
       -0.058004 0.024572337 -0.026883112 0.01927154
000220 25 a2 57 bd 1c ca c7 3c 2d 65 62 bd 2b c6 22 bd
       -0.052644867 0.024388365 -0.05527227 -0.03973977
000230 78 51 05 3c f0 bc 67 bd ab f1 57 bd e9 ca a1 bc
       0.008137099 -0.05657667 -0.052720707 -0.019750075
000240 c6 2c a2 bd f1 05 57 3c 25 1d ee 3c 88 23 a1 bd
       -0.07918696 0.013123975 0.029066632 -0.07868105
000250 05 73 16 3d fd df 68 3d 88 a2 0a 3d 95 e0 a3 bb
       0.036730785 0.056854237 0.033846408 -0.0050011375
000260 0b b0 f0 3c a8 52 d1 3c 6d 7d 79 bd 3f a7 b8 bd
       0.029380819 0.025552109 -0.06091063 -0.09016275
000270 ac 58 94 3c bd 8c 9c bc 78 81 b4 bd 20 e2 32 bc
       0.018108688 -0.019110078 -0.08813757 -0.01091817
000280 80 cc 16 bc 04 e3 dd bc a0 3c 67 3c 67 cf 74 bc
       -0.00920403 -0.027085789 0.014113575 -0.014942027
000290 f2 54 a5 bd 52 06 ee bc 7b 8c 44 3d f3 7e 32 3d
       -0.08072843 -0.029055748 0.047985535 0.0435781
0002a0 c8 7f 36 3c f5 5e a7 bd f7 74 a6 3d 6a f0 98 3d
       0.011138864 -0.081724085 0.08127778 0.0746773
0002b0 99 93 5f bd 10 99 96 3d 58 f5 2d 3d 10 fe b2 bd
       -0.05458412 0.07353413 0.042470306 -0.08739865
0002c0 5f c4 75 3d f8 89 79 3d 88 ec 91 bd b9 4e 5f bd
       0.060001727 0.060922593 -0.07125193 -0.054518435
0002d0 86 f8 98 3b 69 d5 60 bd a5 d4 1e bd 6b 71 6e 3d
       0.004668298 -0.054891024 -0.038777012 0.058213633
0002e0 9e 62 bc bd 4c 4e 3a bd a0 76 e3 3c b3 f9 ad bc
       -0.09198497 -0.045484826 0.027766526 -0.02123723
0002f0 87 c3 8e bd 07 b5 3a 3b bc 51 53 3d f9 0e a0 3d
       -0.06970888 0.0028489248 0.05159162 0.07815356
000300 da 25 5b 3d 9b 0e 76 bd dd b1 7c bd 23 6b 80 3d
       0.053502895 -0.060072523 -0.06169306 0.06270435
000310 9a 7c 18 3d 21 5d c0 bd 4a 1d 9a bd 43 f2 c0 bd
       0.037228204 -0.09392763 -0.07525118 -0.09421208
000320 e0 af d3 3b 06 f4 70 bd c3 77 b9 bd 60 f5 5a 3c
       0.006460175 -0.05882647 -0.09056046 0.013364166
000330 32 9a 26 3d 7c 1c 67 bd 7d ea cc bc 40 67 84 ba
       0.040674396 -0.05642365 -0.025014156 -0.0010101572
000340 3f a3 87 3d 8b b6 59 3d 25 3a a4 3d 1f f5 f4 bc
       0.066229336 0.053152602 0.08018903 -0.02990204
000350 fb 26 93 bd 53 d8 3f bd 67 e3 24 bd 9e 59 49 3d
       -0.07185169 -0.046837162 -0.04025593 0.04915773
000360 4f 19 c6 bc e0 03 da 3c 1d c1 a5 bd 38 73 89 bd
       -0.02418199 0.026613176 -0.08093474 -0.06711429
000370 91 70 17 bd 00 6c 03 3c 11 d2 8d 3d 51 f9 29 bd
       -0.036972586 0.008021355 0.069248326 -0.041497532
000380 5e 5f a9 3c 14 71 a3 bc 1c f8 00 3d eb 69 56 bc
       0.020675357 -0.01995138 0.031486616 -0.013086776
000390 c8 d5 a6 3c c7 90 66 bd b7 c2 5f 3d 72 85 9e bd
       0.02036561 -0.056290414 0.054629054 -0.077402964
0003a0 56 25 5f bd 77 59 24 bc 05 00 a0 3d 80 19 51 3d
       -0.054478966 -0.010031096 0.07812504 0.05104971
0003b0 04 b0 1b 3d 5d f2 82 bd 02 5f 79 3d a1 a7 a0 ba
       0.03800966 -0.063938834 0.060881622 -0.0012256989
0003c0 05 fd 27 bd 92 51 15 3d 58 78 52 3c c8 d5 56 3d
       -0.041012783 0.036454745 0.012846075 0.05244997
0003d0 75 40 a5 bc df 3d 9d 3b 60 bc b5 3c 9b 59 93 3d
       -0.020172337 0.0047986354 0.02218455 0.07194825
0003e0 a4 c9 fc 38 22 9b 06 3d 55 30 2d bd 4a 09 d9 3c
       0.00012053855 0.03286279 -0.04228242 0.026493687
0003f0 28 fb 24 3c 50 4d 0e 3c 04 a1 88 bc c6 06 0b 3c
       0.010069646 0.008685425 -0.01667834 0.008485502

fc2.bias f4 [128]
000000 49 29 b2 bd 26 d0 e9 bc 98 51 19 bd 93 b3 9a 3d
       -0.08699281 -0.028541636 -0.03743133 0.07553782
000010 5c 66 34 3b 2c c1 f9 bb 93 e8 8a 3d ca 51 40 bd
       0.0027526831 -0.007621905 0.06782641 -0.046953
000020 8d 80 bc bd 67 f0 b5 3c 25 0a 4d 3d 99 33 a2 3c
       -0.092042066 0.02220936 0.050058503 0.019799994
000030 16 4c b5 bd 4d 00 8b 3d 89 b7 06 be 22 32 45 bd
       -0.08852403 0.06787167 -0.1315595 -0.048143514
000040 9d 99 9e bd 02 62 88 bd 59 c5 7b 3c d8 46 52 bc
       -0.07744143 -0.066593185 0.015366876 -0.012834273
000050 18 bb f2 3c 96 11 06 3b 8b 73 23 bd 98 8c 71 3c
       0.029630229 0.002045726 -0.039905112 0.014742993
000060 84 0f 92 3c 21 6a 66 3c 4a f5 f2 bc a6 3b 8b bc
       0.017829664 0.014063389 -0.029657979 -0.016996216
000070 6f 7d 89 bd 64 d7 af bd 08 cf 1e 3d 04 d2 3b bd
       -0.06713378 -0.085860044 0.03877166 -0.045854583
000080 1c a5 ab bc 35 bd 80 3d d7 5e 14 bd fd 85 29 3d
       -0.020952754 0.062860884 -0.03622326 0.041387547
000090 cd 64 59 3d 4d 71 03 bd 22 ea 9e bd 3d 92 2a 3c
       0.053074647 -0.032090474 -0.07759501 0.0104108425
0000a0 8c 49 a5 bd 81 ee 54 3c b7 d6 39 3a 70 cf 38 3c
       -0.080706686 0.012996317 0.0007089185 0.011279926
0000b0 4f f7 d6 3c 63 ee d7 3b 96 da a1 bc 5a bb 92 bd
       0.026240973 0.006589697 -0.01975755 -0.07164641
0000c0 1f 89 8b 3d 60 09 a7 bc 5b 74 9f 3d df 87 45 3d
       0.06813263 -0.020390213 0.07785865 0.04822528
0000d0 89 41 b2 bd 74 72 d6 3d 12 82 32 bd 0d bc ca 3d
       -0.08703906 0.10471049 -0.043581076 0.09899149
0000e0 a1 86 30 bd 12 f7 25 3c e0 8a ea bb 7c ba 0d bb
       -0.043097142 0.010129707 -0.0071576685 -0.0021626046
0000f0 b2 10 13 3d bf 11 1e 3d 46 d7 87 3d ec 08 7a 3d
       0.035904594 0.038591143 0.06632857 0.061043665
000100 d6 0f 62 bd a8 3f 28 bd c5 be 36 bd 3b f2 66 3c
       -0.055190884 -0.041076332 -0.044615526 0.014095838
000110 a4 cb 04 be 93 4a 89 bd a6 16 43 3d df 40 80 bd
       -0.12968308 -0.06703677 0.04762902 -0.06262373
000120 46 30 f3 bc 55 23 9e 3d c2 2f 27 bd 55 af 7c 3c
       -0.029686105 0.07721583 -0.04081703 0.015422662
000130 c5 c1 ef 3d c7 f2 3e bc 31 b0 8b 3d 56 3a 6e 3c
       0.117068805 -0.011654562 0.06820715 0.014540276
000140 38 d9 db 3d 1a 93 b8 3d bb d8 86 bc fe 7f 99 bd
       0.107347906 0.090124324 -0.016460767 -0.07495116
000150 27 4f a4 bd 34 dc 17 bd 34 d3 8c 3d 9b 2e 7b bd
       -0.080229096 -0.037075236 0.06876221 -0.061323743
000160 e8 7f b5 3c f8 8c 38 3c 9c 5c 8c bd c3 de 43 3d
       0.022155717 0.011264078 -0.06853601 0.047819864
000170 31 38 b0 bd 6e d0 80 3d ef 89 91 3d 9f 47 01 3a
       -0.08604468 0.06289755 0.07106387 0.0004931632
000180 c8 06 9b bc 86 3f 89 3d 12 18 92 3d 13 71 e1 bd
       -0.018924132 0.06701569 0.07133497 -0.11007895
000190 7b 75 ae bd 2e 26 f6 bc bb 9a a3 3d f9 70 ad bc
       -0.08518501 -0.030047502 0.07988497 -0.021172034
0001a0 6e e1 76 bd 4a 4a 9d bd b5 25 26 bd e8 4e be bd
       -0.06027358 -0.07680185 -0.040563304 -0.09292394
0001b0 73 80 d1 bd ec 3d 72 bb 50 9c 19 bd 33 8a ae 3a
       -0.10229578 -0.0036963178 -0.037502587 0.0013316333
0001c0 d0 4f c3 3d 87 52 72 3d 1e 98 8e 3b 86 e2 7f bd
       0.095367074 0.059160735 0.00435163 -0.06247189
0001d0 6c 79 83 3c 35 97 ff ba 20 ff 8c 3d fc 2d 9b bc
       0.01604911 -0.0019500019 0.06884599 -0.018942825
0001e0 06 64 bd 3d 37 54 c5 3c d1 d0 b5 3d 0e f5 09 3d
       0.092475936 0.024088008 0.08877719 0.033680968
0001f0 5e f6 d5 3d 4c d9 b3 bc df 5d 48 bd a6 77 21 3b
       0.104473814 -0.021954201 -0.048917647 0.0024637966

out.weight f4 [3, 128]
000000 62 10 37 3d a5 c4 96 bd f5 95 8a 3d 2b 6f a9 3d
       0.04469336 -0.07361726 0.06766883 0.08273157
000010 b6 d1 49 3e 25 04 93 3e a6 7e db bd 64 ae a6 bd
       0.19708905 0.287141 -0.10717516 -0.08138731
000020 1d 89 94 3d 41 cc 93 3e 5d ee 53 3e 09 32 6d bd
       0.07252715 0.2886677 0.20696397 -0.057909045
000030 1c 40 71 3f 89 a0 c8 be 36 9d a6 bd 72 1c 50 be
       0.9423845 -0.3918498 -0.08135454 -0.20323351
000040 3a a1 5e bd 47 29 c2 bd 4d 6b 3a bd 07 3c 82 3d
       -0.054352976 -0.09480529 -0.045512486 0.063591056
000050 1e d1 c8 bc 43 11 fd 3c b0 d9 fb 3c 92 25 2a 3e
       -0.024513777 0.03089202 0.03074345 0.16615894
000060 03 94 b8 bd ce 95 59 3e 02 6c 6c 3e 13 39 54 3d
       -0.09012606 0.21248552 0.23088077 0.051812243
000070 a5 26 6f 3e df ac 16 3e 0b 4c 83 bd 0b 7c 30 3e
       0.23354585 0.14714383 -0.064109884 0.17234819
000080 05 9a e2 bd 38 26 3b be 71 25 61 3e 56 f1 47 be
       -0.11064533 -0.18276298 0.21986939 -0.19525656
000090 dc 4a b7 3d c4 75 1d 3f d7 29 8b 3d 08 a1 9d bd
       0.08949825 0.6150782 0.0679509 -0.0769673
0000a0 05 a6 be 3b 6b 70 60 3e c9 e8 16 bf 0f 43 bf bd
       0.005818131 0.21917884 -0.5894895 -0.09338962
0000b0 50 bf 13 3e e1 e2 85 bd 20 e1 f7 bd c2 3a 6a bd
       0.14428449 -0.06537414 -0.12103486 -0.057184942
0000c0 ea 5d 53 3e c5 1a 44 be 4b fe 8c bd 15 e6 dd bd
       0.20641294 -0.19150837 -0.0688444 -0.108349
0000d0 8b ce 86 3d cb 1e 12 be 75 65 18 3f 22 89 18 bf
       0.06582364 -0.14269559 0.5952981 -0.5958425
0000e0 48 c8 d1 be 0e 8d a3 3e b8 ac 40 3d cb 4a 90 bd
       -0.40973115 0.31943554 0.047039717 -0.070455156
0000f0 f8 04 ec bc 37 a1 f9 bd a4 c1 df bc 6d 05 91 bd
       -0.028810963 -0.121889524 -0.027314015 -0.07081113
000100 31 b6 17 3e f0 4b 0f 3c f7 4f 82 bd dc 28 f2 bd
       0.14815594 0.008746132 -0.06362908 -0.118241996
000110 62 20 ee bd 4a d9 81 3d 30 23 98 bd 7f 8a be bd
       -0.1162727 0.06340273 -0.074285865 -0.0930376
000120 62 a2 9a 3d 9d 92 81 3e 17 ee 04 be d1 47 d9 bd
       0.07550503 0.2530717 -0.12981449 -0.10609401
000130 9b e9 36 bd 08 a7 4d be ad 02 92 3d 01 e4 99 3e
       -0.044656377 -0.20083249 0.071294166 0.30056766
000140 dd ba 7d 3e 82 6e 14 be fe 45 87 bd 1e 15 78 3d
       0.24778314 -0.1449528 -0.06605147 0.060567014
000150 99 76 2d bc e3 88 7e be 57 a4 59 bd a0 33 96 bd
       -0.010587358 -0.24856906 -0.053135242 -0.073340654
000160 f9 3c 19 3e 93 6f 03 3e 28 89 60 bd 8d 0e 03 be
       0.14964665 0.12835531 -0.054818302 -0.1279852
000170 a8 eb 72 bd 6c d9 73 be 83 81 c9 3c 2e f3 d0 3d
       -0.05930677 -0.23813409 0.024597889 0.10202633
000180 7e db 77 3d 18 51 63 be 5e 99 23 3e b5 04 41 bf
       0.06051206 -0.22198904 0.15976474 -0.7539781
000190 fc bb ef bd 49 86 dd bb 7a 18 98 3e 30 5a 7d 3e
       -0.11705777 -0.006760393 0.29706174 0.24741435
0001a0 7b 08 ff be 96 be a8 3e 4b 19 2c 3e dc be 98 bd
       -0.49811158 0.32957906 0.16806524 -0.074582785
0001b0 a8 86 51 bd 87 23 17 3e 7d fb e3 bd 39 da eb 3d
       -0.05115381 0.14759646 -0.11131952 0.11516232
0001c0 62 b0 1b bf 09 6b 42 be 4e 0d 8a 3d 1c f6 9e bd
       -0.60816014 -0.18986143 0.06740819 -0.077617854
0001d0 1b 3a f1 bc 6c a8 d0 be 0c 0e b3 3d e9 16 96 3e
       -0.029446652 -0.40753496 0.087429136 0.29314354
0001e0 f9 26 16 3f 16 51 e0 3d d3 8d 50 bc aa bf 84 3e
       0.5865322 0.10952966 -0.012729126 0.25927478
0001f0 e1 7d 98 3e c6 4b 62 3d b5 c2 75 3c 5d 3b 07 3e
       0.29783538 0.055248044 0.015000035 0.13206239
000200 0d 00 2b 3d 2a 4f 61 3d db ae 96 3d e5 e2 f5 3d
       0.041748095 0.055007137 0.0735757 0.12006167
000210 e0 9f 10 3e 4b 48 b7 3e db 4c b7 bd cc cb 14 3d
       0.14123487 0.35797343 -0.08950206 0.03632717
000220 a1 05 46 bd 97 a1 67 3e e4 69 51 3e f3 da 74 3d
       -0.048345212 0.22620235 0.2045055 0.05977912
000230 a7 ac 97 3f 66 9f be be fb 4b 96 bd 13 07 3c be
       1.1849564 -0.37230986 -0.07338711 -0.18362074
000240 fa 45 1a 3d 1e 00 84 3d fa 8c 76 bd ea 77 71 bd
       0.03766439 0.06445335 -0.06019304 -0.05895225
000250 ab ef 82 3c 6f 8f ab be 70 72 86 bb 70 7c 00 3e
       0.015983423 -0.3350787 -0.0041029975 0.12547469
000260 db 53 0c 3e ff 8c 12 3e ea 32 7f 3e 58 27 93 3d
       0.13703863 0.14311598 0.24921766 0.071852386
000270 0e 6d 6b 3e ae a5 86 be e2 6c 95 be 71 ce da 3d
       0.2299082 -0.2629828 -0.29184633 0.10683907
000280 d3 ee 77 be 7c 9c fe bd 75 eb 42 3e 99 9b 69 be
       -0.24212198 -0.12432191 0.19035132 -0.22813262
000290 ba a0 05 bd 38 ad f9 3e a4 77 93 bc b0 50 ea bb
       -0.032623984 0.48764968 -0.018001385 -0.007150732
0002a0 d5 32 a3 3d 31 db e5 3d 14 54 96 bf e2 47 0a be
       0.0796868 0.11223448 -1.1744409 -0.13503984
0002b0 e7 62 da 3d a8 17 96 bd 5d 29 09 be ae ab 17 be
       0.106633954 -0.07328731 -0.13394685 -0.14811584
0002c0 f3 0f 27 3e 26 b9 2d be 48 d4 97 bd d8 1d d1 3d
       0.16314678 -0.1696516 -0.07413536 0.1021077
0002d0 11 94 90 bc 97 15 0d be 12 c6 b5 3d 91 c1 06 bf
       -0.017648729 -0.13777767 0.088756695 -0.5263911
0002e0 26 e6 e8 be b7 7e 8d 3e 27 3f 85 3e a6 9f 54 be
       -0.4548809 0.27635738 0.26024744 -0.20764026
0002f0 e7 cb 27 bd c6 ec ea bd a7 cf 0e 3d a0 45 27 3c
       -0.04096594 -0.11470942 0.034866 0.010209471
000300 4d 84 59 3d 91 44 31 ba bb a0 2a be b9 07 10 be
       0.053104687 -0.00067622314 -0.16662876 -0.14065446
000310 a1 21 54 bd a3 8d 36 bd 8d ea 05 be 15 de de bd
       -0.051789884 -0.04456867 -0.13077755 -0.108822025
000320 08 f5 f6 3d a1 7b 55 3e a0 f0 8e be 11 b2 88 3d
       0.12058455 0.20847942 -0.27917957 0.066745885
000330 53 98 dd 3d 54 90 f7 bd d3 db 14 3e ba 2a 54 3e
       0.10820069 -0.12088075 0.14536981 0.20719424
000340 68 b5 44 3e 88 18 5b 3d 49 b8 ec bc 13 f5 ac 3d
       0.19209826 0.05349019 -0.028896468 0.08445182
000350 8a 37 18 3d 30 94 5a be c2 59 37 3d 10 a7 35 3d
       0.03716234 -0.21345592 0.044763334 0.044348776
000360 e9 ed 10 3e 91 09 b3 3d 94 0f c5 bc cc 2d 40 be
       0.14153256 0.08742059 -0.02405528 -0.1876747
000370 26 a8 e1 3a c3 ad 4f be 13 8e 01 3e 39 4b 46 3e
       0.001721625 -0.20281129 0.12651853 0.19364633
000380 6f 20 23 bd f7 0f 34 be 8a dc 69 3e be 78 3d bf
       -0.039825853 -0.17584215 0.22838035 -0.7401236
000390 6c ec 89 bd f0 b1 b8 3b 89 03 0a 3e 53 54 32 3e
       -0.06734547 0.005636446 0.13477911 0.1741498
0003a0 fb 74 99 be 8a 0c 29 3e 00 ef e6 be 44 a7 3c bd
       -0.29972062 0.1650869 -0.45104218 -0.046057954
0003b0 30 94 2e 3e 5a f0 2e 3e 37 40 3e be 15 05 b0 3d
       0.17048717 0.17083874 -0.18579184 0.08594719
0003c0 ed 5f 0e bf 16 2a 79 be 11 8c 3f 3b 74 13 a3 bd
       -0.5561512 -0.24332461 0.0029227773 -0.07962695
0003d0 20 52 8e bc 63 6d cb be a1 f9 0a be fd 7a 4a 3e
       -0.017373145 -0.39731893 -0.13571788 0.19773479
0003e0 21 ab be 3e a5 ce 0d 3e 18 4e 03 be 44 65 25 3e
       0.37239936 0.1384836 -0.12822759 0.16151911
0003f0 cb 52 31 3e de 1f 51 3d e1 56 38 3c 72 58 2f 3e
       0.1731674 0.05105578 0.011251182 0.17123583

out.bias f4 [3]
000000 c2 59 ad bd 25 f5 3d bd 43 79 8e 3d
       -0.084643856 -0.046376366 0.069567226

fc1.weight f4 [128, 6]
000000 e8 61 12 bf 5e ca ff 3e 08 55 84 be 98 f6 8f 3d
       -0.57180643 0.4995908 -0.25846124 0.07029456
000010 c7 b5 9e be ba 79 78 be c3 71 eb be 13 c2 4e be
       -0.3099806 -0.24265185 -0.4598523 -0.20191221
000020 18 aa db be aa 5b aa 3a 9d 4c 2b bd 90 3f 32 3e
       -0.4290321 0.0012997289 -0.04182111 0.1740706
000030 ec 33 b7 be 53 ce 14 be d1 d3 b4 be 3f 15 c0 3c
       -0.357818 -0.14531831 -0.35317853 0.02344763
000040 bb c2 e9 3e b7 b8 f7 3d cc 47 68 3e 9d f3 22 bf
       0.4565638 0.120957784 0.22683638 -0.63652974
000050 87 75 7a be d9 5f ad be 21 18 d9 bd 4f 10 b2 3e
       -0.24458896 -0.33862188 -0.10600305 0.34778067
000060 b3 31 f3 3e fe 47 6c be 0c 6b 77 3e 8b 39 26 3e
       0.47498855 -0.23074338 0.24161929 0.16232888
000070 c4 48 05 be 6d 8d d7 3e fa 78 29 be 17 3f 21 3e
       -0.13016039 0.42100087 -0.16550055 0.15746723
000080 55 3c 8b 3e 4f 7e 89 bb 8d 54 1f be 5b ca f4 3d
       0.27194467 -0.0041959654 -0.15559597 0.11952659
000090 41 b1 0c be 0a 15 66 be 22 33 33 3e db 1f cd bd
       -0.13739492 -0.22468963 0.17499974 -0.100158416
0000a0 3e 7f 6c 3e 7b 6a 7a 3e ac 9e 2b bf 98 9f 6f 3e
       0.23095414 0.24454682 -0.6703899 0.23400724
0000b0 72 14 db be 5b 04 8d 3e a5 91 a2 3d 13 90 43 3e
       -0.42789036 0.27542385 0.07937936 0.19097929
0000c0 ad 80 4f 3e 21 90 1e 3e 32 6b 99 3e 14 4a c6 bd
       0.2026393 0.15484668 0.29964596 -0.09682098
0000d0 a9 54 89 be cf 36 b8 be 10 00 8b be 7f 7a be be
       -0.26822403 -0.35979316 -0.27148485 -0.37202832
0000e0 ba 45 6c 3e b4 7c 3e bd 8b ec 01 3f 43 90 eb 3d
       0.23073474 -0.046505645 0.5075156 0.11502125
0000f0 c3 8e a0 bd 8b b1 80 bd 8b 08 f0 3d 62 e1 a1 be
       -0.0783973 -0.06283864 0.117203794 -0.31617266
000100 c6 84 95 3d c6 39 81 3e 12 94 dc 3e 6d b2 f8 bd
       0.07300715 0.2523939 0.4308172 -0.12143407
000110 2a 38 5a 3e 2c ca cc be eb c7 54 bd 64 04 b7 3e
       0.21310487 -0.39997995 -0.05194847 0.35745537
000120 ae f1 d1 be d9 15 62 be 98 d9 f2 3e d7 9f 1c be
       -0.410047 -0.22078647 0.47431636 -0.15295349
000130 84 61 b9 3d 1f 78 dc 3e cc e0 8e 3d 8c c6 ad be
       0.09051803 0.43060395 0.0697647 -0.33940542
000140 3c dc 88 3e 45 ff bd be be 6b 0c 3e 50 fb 39 bd
       0.26730525 -0.37108818 0.13712975 -0.045405686
000150 41 a8 95 3e 06 e1 3b 3e d4 6b 29 3e df dd 3d 3d
       0.2922993 0.18347558 0.1654504 0.04635417
000160 9c 5b 50 3e c9 5a 7f 3e 9d f1 86 3e c6 dd 44 bd
       0.20347446 0.24936976 0.2635621 -0.048063062
000170 8d 27 66 3e e0 12 ae be 4a 5a 5f bc df 05 35 be
       0.22476025 -0.33998775 -0.013632366 -0.17678021
000180 a3 8d 10 3d 30 f0 94 be 79 68 05 bf 3d 82 76 be
       0.035291325 -0.290895 -0.5211254 -0.2407312
000190 5d f3 7f 3d 5c 2f 8a 3d fb 42 8e be 2f af 1d bd
       0.06248795 0.06747314 -0.27785477 -0.038497146
0001a0 b3 0e 7b bc da 3c f8 be b3 10 1d bf ef b3 91 3e
       -0.015323329 -0.48483926 -0.61353606 0.2845759
0001b0 a7 e5 15 bf 84 cc d3 3d 6d d8 ea be 96 b8 9c 3d
       -0.58553547 0.10341743 -0.45868245 0.076523945
0001c0 e9 f4 08 be 58 e3 cc 3e c0 76 5c 3e 11 dc 13 be
       -0.13374676 0.400172 0.21529675 -0.14439417
0001d0 0a 17 10 3f a2 b1 0f 3e b3 b0 91 3e 92 2c 02 3e
       0.56285155 0.14032605 0.28455123 0.12712315
0001e0 2b a7 73 3e 66 fb d3 be b3 53 d5 bd 55 b2 03 bf
       0.23794238 -0.4140274 -0.10416355 -0.5144399
0001f0 f1 2d 18 bd 9a 2c a5 3e 7c 31 3e be 6a 39 46 be
       -0.03715319 0.3226059 -0.18573564 -0.19357839
000200 c4 c9 ec be 20 3a c2 be f5 4a a8 3e df 09 54 3e
       -0.46247685 -0.3793497 0.32869688 0.2070689
000210 d8 0a 35 3e 00 44 da be 6e 63 78 bc 15 f7 da bc
       0.17679918 -0.42630005 -0.015160425 -0.026729146
000220 71 f0 95 3b 47 a2 ed 3e 67 0c f6 3d 4a d2 08 bf
       0.004575782 0.4641287 0.12014084 -0.53445876
000230 53 cf 4e 3c 55 a4 e2 be c5 af b5 3e 55 4b 09 be
       0.012622672 -0.44266 0.35485664 -0.13407643
000240 14 68 b9 3d 3f cb b0 be 7f 52 5f be 29 05 87 be
       0.090530545 -0.34530064 -0.21808814 -0.26371124
000250 3b 80 24 be a4 76 c8 3d 22 4d 9f 3e cd 1e c1 bd
       -0.16064541 0.09788254 0.31113535 -0.09429703
000260 d8 e9 0a 3f fc d0 ed bd b8 74 1a be 2f 3a 85 3d
       0.5426307 -0.11612126 -0.15083587 0.06505238
000270 b7 3e 31 3e fd 63 4a be 91 11 7a be 6b 4d 14 bf
       0.1730908 -0.19764705 -0.24420764 -0.5793063
000280 ca ed 90 bd ca b5 0d be 8a ac 28 3e 97 05 62 be
       -0.07076605 -0.13838878 0.16472068 -0.22072445
000290 a4 61 25 3e 96 e3 ea be 9d 93 89 be d7 1a b6 3e
       0.16150528 -0.4587676 -0.26870432 0.35567352
0002a0 62 13 59 3d 4d 43 a4 3d 0d fd 04 be 4c 58 c0 3e
       0.052997 0.08020649 -0.12987156 0.37567365
0002b0 ba df 82 3d 05 c5 e5 be e1 bb 6f bf 23 98 d9 be
       0.06390329 -0.44876876 -0.93646055 -0.42498884
0002c0 0e 28 04 be 52 fc 7e bc 72 c1 f9 3e 11 23 21 be
       -0.12905905 -0.015563088 0.487804 -0.15736033
0002d0 c9 c2 66 be f7 08 ad be 67 95 a0 be 8b b9 84 be
       -0.22535242 -0.33795902 -0.31363985 -0.25922808
0002e0 04 4b 70 be 0d 88 9c 3e fb 22 d6 bf 7a 92 21 be
       -0.23466116 0.30572549 -1.6729425 -0.15778533
0002f0 bc c7 06 bd 47 8d 10 3d 40 a1 1d 3e df b3 ba 3b
       -0.032905325 0.035290983 0.15393543 0.005697712
000300 c0 da fe be 21 4f 99 be 59 3b 6a bd 28 69 51 be
       -0.49776268 -0.29943183 -0.057185505 -0.2045027
000310 5a 56 e9 3e e0 c4 90 3e 02 6c 0f 3e 36 0c d7 3d
       0.45573694 0.28275204 0.14006045 0.10500376
000320 af aa 8f bd 8e d5 bd 3e ef 9d 9f be 36 79 11 be
       -0.07014977 0.37076992 -0.3117518 -0.14206395
000330 1b b7 df 3e 14 67 da 3e 92 a0 88 be 11 3b d6 3e
       0.43694386 0.42656767 -0.26685005 0.4184194
000340 b7 95 83 3e 9d 5c be be f3 f4 07 bf 32 f0 c9 3e
       0.2570016 -0.37180033 -0.5310814 0.39441067
000350 53 d1 62 be 0c 0f d1 bd 3b 04 30 be d8 ec a6 3e
       -0.22150163 -0.10207948 -0.17189114 0.32602572
000360 5e e1 db bd 6e 02 59 bd 1a 53 b8 3e 37 a4 66 be
       -0.10736345 -0.052980833 0.360009 -0.2252358
000370 ba f8 91 3e 58 64 d7 3d 45 0e 31 bd 40 61 1d be
       0.28510076 0.10517186 -0.0432265 -0.15369129
000380 21 b7 69 bd e1 57 5f be 6d 83 8b be a7 09 09 3e
       -0.05705941 -0.21810867 -0.27248707 0.13382588
000390 23 7b b9 be 75 56 61 3e 7b 8a 1f 3e 22 1e b9 bd
       -0.36226758 0.22005637 0.1558017 -0.090389505
0003a0 2f f5 03 be 35 eb 5a be b2 98 a3 bb 72 fb 7b 3e
       -0.12886499 -0.21378787 -0.004992568 0.24607638
0003b0 b0 02 49 be 6d 06 82 3d 3a 37 9d bd a0 80 f7 bd
       -0.19629931 0.06348882 -0.07676549 -0.1208508
0003c0 ec d9 c4 3d c9 15 d9 be eb 0e df be 45 c0 64 be
       0.09611878 -0.42399433 -0.4356607 -0.2233897
0003d0 f8 08 b1 be 90 7c 2b 3e 34 5f 18 bc 71 ed 05 bc
       -0.34577155 0.16746736 -0.009300042 -0.008174286
0003e0 20 ea c7 bb f8 19 1b be 09 8c 72 b9 60 16 97 bd
       -0.006100908 -0.15146625 -0.00023131086 -0.073773146
0003f0 f4 6c 7a bd 15 96 a7 3e da 80 da 3e a6 6a 93 3c
       -0.061139062 0.3273169 0.4267643 0.01799519

fc1.bias f4 [128]
000000 7a 94 83 b9 8f 8d 8d bd 07 38 62 be 18 a2 6c 3e
       -0.0002509689 -0.06911766 -0.22091685 0.23108709
000010 6b 04 a3 be ee 8d bc 3e 27 0c d2 bd d6 11 b0 bd
       -0.31839308 0.36827034 -0.10256224 -0.08597152
000020 af de 45 3d a8 ac bf 3e b8 31 80 be 1f 2e c1 be
       0.04830807 0.37436414 -0.25037932 -0.377305
000030 37 59 69 be 30 e7 a5 3d 44 1e 26 3e 98 a4 00 3d
       -0.22787939 0.08100736 0.16222483 0.03140697
000040 56 e9 92 be 94 d3 18 3e 72 96 12 be b8 8b 3b be
       -0.28693646 0.1492446 -0.14315203 -0.18315017
000050 83 af 38 be 1e 8a 04 3e f8 54 21 be 14 04 8f 3e
       -0.18035702 0.12943313 -0.1575507 0.279328
000060 f2 42 0e 3e 3a 3b a7 bb f3 1f bc be 00 f2 aa bd
       0.13892725 -0.005103496 -0.36743125 -0.08346939
000070 7a fb e6 be 7f b6 bf 3e 73 fe 29 3e 07 43 dc 3d
       -0.45113736 0.3744392 0.16600971 0.10754972
000080 aa fc ef 3d 9c fa 6d 3e 6a aa ba be 9d e3 81 be
       0.11718114 0.23240131 -0.3645814 -0.25368968
000090 1d 9b e6 3d 53 ba 2b 3e 84 0f 16 3e 6d 50 89 3e
       0.11260054 0.16770296 0.14654356 0.26819173
0000a0 57 9f 49 3e 02 db 2d 3d 65 64 f9 3d 2a c6 15 3e
       0.1968969 0.04244519 0.12177352 0.14626375
0000b0 d4 5e 40 be c1 dc 47 be de ed da be cd 1f a5 3e
       -0.18786174 -0.19517805 -0.42759603 0.32250825
0000c0 81 05 8b be 90 66 64 be 11 06 c5 bd ba 04 25 be
       -0.27152637 -0.2230475 -0.09620298 -0.16115084
0000d0 46 39 b4 3e 17 66 0d be 05 34 ff 3d ae 45 74 3e
       0.35199946 -0.13808475 0.12461094 0.23854706
0000e0 82 96 09 3e de 44 3b 3e e1 0c c0 3d a1 92 85 3e
       0.1343632 0.1828799 0.093774565 0.2608843
0000f0 e2 e5 c9 be b5 db 4a 3d 65 40 91 3e 1d 3d 9b bd
       -0.394332 0.049525935 0.28369442 -0.07580016
000100 bf d1 91 3d 10 f8 c5 3d b1 6d 77 be 9a e3 b6 be
       0.07120084 0.09666455 -0.24162938 -0.3572052
000110 41 03 e9 3e 35 de ab 3e 09 6c 77 3e 8a d5 9d bd
       0.45510295 0.33567968 0.24162306 -0.07706745
000120 5f a4 34 3d 4b 75 6c 3e fd 20 fd bd 81 5e af be
       0.04410207 0.23091619 -0.12359808 -0.34251788
000130 a5 92 bf be 52 aa 1b 3e 73 e5 ae be ff f5 07 3e
       -0.37416568 0.15201691 -0.3415943 0.13277434
000140 63 43 89 3e 57 44 77 3d 7e b3 9a be 8e 51 66 be
       0.26809224 0.06036791 -0.30215067 -0.22492048
000150 50 fb b5 bd 99 95 df bc 44 a3 ab be a9 20 cb bd
       -0.08885825 -0.027293013 -0.33523 -0.09918339
000160 a5 1b 80 3e 02 7d 7b be df e6 82 3e 4c ac 0d be
       0.2502109 -0.24559405 0.25566766 -0.13835257
000170 ba d7 1d 3e 47 f1 cc be e9 5d 59 be 84 cc 4e be
       0.15414324 -0.4002783 -0.2122723 -0.20195204
000180 7f 9c 18 be f1 1e a7 be 10 b7 4b bd 33 b6 29 3d
       -0.14903449 -0.32640794 -0.04973513 0.041433524
000190 10 9a 7b 3c ab c5 a9 3e d7 89 5c 3e e0 c5 b6 3e
       0.015356556 0.3315862 0.21536957 0.35697842
0001a0 29 b2 de 3d 12 ba cc 3d 4b 08 2d be 3f 76 d5 3e
       0.10873825 0.099964276 -0.16897695 0.41691777
0001b0 58 f3 9e 3d ce 05 46 be 03 68 7b be 02 0e 52 be
       0.07761258 -0.19338152 -0.24551396 -0.20513156
0001c0 67 97 aa be db c1 5c 3e 56 16 84 3e eb da d0 3d
       -0.33318636 0.21558325 0.2579829 0.10198005
0001d0 a3 95 a5 3e ea a5 8c bd 50 ca 8f bc f0 19 4a be
       0.32340726 -0.06867583 -0.017552525 -0.19736457
0001e0 31 99 c8 3e a4 69 88 3e 48 de bd 3e 46 06 34 3e
       0.39179376 0.26643097 0.3708365 0.17580518
0001f0 99 21 46 bc 40 c1 47 be 56 c6 08 bf 68 e1 8f 3e
       -0.012092971 -0.19507313 -0.53427637 0.2810166

fc2.weight f4 [128, 128]
000000 62 a2 8b 3d 20 81 79 bc a3 49 c1 3c b8 d8 aa bd
       0.068180814 -0.01522854 0.023594683 -0.08342117
000010 fb f3 e3 3c 59 92 51 3d d1 9c 20 3c af a7 c9 bc
       0.0278263 0.05116496 0.009803013 -0.02461609
000020 b8 13 0d 3d 63 b4 4a bd a5 46 a6 bd b2 e6 89 bd
       0.034442633 -0.049488436 -0.08118943 -0.06733455
000030 db 4c e0 bc a5 a4 ad bc 3b 39 63 3d 7f d7 e6 bc
       -0.027380398 -0.021196673 0.0554745 -0.028178928
000040 29 91 87 3d 80 76 5a 3c 39 9f ad 3b fc a4 a5 3d
       0.06619484 0.013333917 0.005298522 0.08088109
000050 63 a5 8b 3d a0 80 ca 3c 05 90 e4 bc 3d eb b9 bd
       0.068186544 0.024719536 -0.027900705 -0.09078071
000060 25 3a 9c 3d f5 64 bf bd c4 92 e1 3c 72 4e 9e bd
       0.07628278 -0.09345428 0.027535804 -0.07729806
000070 75 73 96 bd a6 79 01 bd 33 24 75 3d f1 6f 59 bd
       -0.073462404 -0.031610154 0.059848975 -0.05308527
000080 a1 ea 2f 3d 57 1e 85 ba 97 eb 84 bd 96 a4 dd bc
       0.04294837 -0.0010156137 -0.06490248 -0.02705602
000090 c9 74 a2 bd d9 0f ff 3c 3d 79 b1 bd f4 0d 13 bd
       -0.07932431 0.031135486 -0.086657025 -0.03590198
0000a0 b6 f3 8f bd 4a 38 e3 3c 7c bf a8 3c 01 d7 6f bd
       -0.07028906 0.027736802 0.02059912 -0.058554653
0000b0 b1 98 52 3d 74 c1 9d 3d e7 9c 50 bd 25 d2 74 bd
       0.05141515 0.07702914 -0.050930884 -0.059770722
0000c0 66 bb 13 3d c5 82 26 bd 94 73 e9 bc 34 a3 d7 39
       0.03606739 -0.040652055 -0.028497495 0.0004112959
0000d0 ef f1 1c 3d 3a 1a 1f bd b3 60 49 b7 5a 95 aa bd
       0.038316663 -0.03884337 -1.2003048e-05 -0.08329268
0000e0 4f 2d 5a 3d 2d 28 23 3b 28 41 4b 3b b1 72 1f 3d
       0.053265866 0.0024895773 0.0031014178 0.038927738
0000f0 d0 7c bb 3b 60 8e d3 bb 46 22 b1 bd 40 7e 71 3d
       0.005721666 -0.0064561814 -0.08649115 0.058958292
000100 25 ea b6 bc 66 65 51 bb d4 fe 97 bd a4 c4 ed 3c
       -0.022328446 -0.0031951307 -0.074216515 0.02902443
000110 35 51 1e 3d 56 5c f5 3c 94 b1 fb 3c bf 61 c6 bd
       0.038651664 0.029951256 0.030724324 -0.09686612
000120 b8 33 6d bd 9a 14 1f 3d a0 45 7d bc cc cd 03 3d
       -0.05791065 0.038838007 -0.015458494 0.032178685
000130 00 b2 02 ba 58 e0 5e 3c 73 25 2c 3d 98 fd 95 3d
       -0.00049856305 0.013603292 0.0420279 0.0732376
000140 ae ee ad 3c 10 4c 2e bd 79 7b 29 3b d5 29 11 bc
       0.021231975 -0.042553008 0.002586095 -0.008860071
000150 70 16 98 bd 95 d3 be bc 6f 88 0a 3d df cb 51 3b
       -0.074261546 -0.02329425 0.03382152 0.0032012386
000160 00 43 92 bd ca 00 88 bb 62 80 ad bd 54 09 93 bd
       -0.071416855 -0.0041504847 -0.08471753 -0.071795136
000170 09 3e c6 3c cb bb 4e bd 39 ca 12 bd 3b 96 86 3c
       0.024199503 -0.050472062 -0.035837386 0.016429057
000180 e8 a1 61 bd 49 3c ed 3c 78 79 53 bc 72 cc c5 bb
       -0.055086046 0.02895941 -0.012907378 -0.0060363347
000190 5c 92 96 bd be f1 f9 bc 31 7d d1 bc 08 a9 ba bd
       -0.073521346 -0.03051078 -0.025572391 -0.091142714
0001a0 9d 5f 16 3b 3f bb 0a 3d 32 bd 67 ba db 7d 5d bc
       0.0022945174 0.033869978 -0.0008840143 -0.013518776
0001b0 6a 82 06 3d 65 82 b1 3a b5 a2 55 3d ac 90 d2 3c
       0.032839216 0.0013542889 0.052157123 0.02570375
0001c0 4b 25 b7 bd 28 06 6d 3c 59 b9 a3 3d 71 33 6c bd
       -0.0894266 0.0144668 0.07994337 -0.057666246
0001d0 e4 9a 2b bd 46 de 98 3c af 93 0e bd 1e 5e eb bc
       -0.041895762 0.018660676 -0.03480881 -0.028731402
0001e0 5b 27 9b bd 65 fb 82 3d f2 86 c2 3c 8a 85 c4 3b
       -0.07575866 0.06395606 0.023745988 0.0059973644
0001f0 02 2b 7d bd c0 d0 f7 3b fb e0 11 3b 04 37 6b bd
       -0.061808594 0.0075627267 0.0022259343 -0.057425514
000200 9f e3 2a bd c9 55 09 3d 69 e1 96 bd 38 04 96 3b
       -0.041720983 0.033529077 -0.07367212 0.0045781396
000210 9a 95 6d bd ed 4b c9 3c f9 39 dc bc 59 df 9d 3c
       -0.058004 0.024572337 -0.026883112 0.01927154
000220 25 a2 57 bd 1c ca c7 3c 2d 65 62 bd 2b c6 22 bd
       -0.052644867 0.024388365 -0.05527227 -0.03973977
000230 78 51 05 3c f0 bc 67 bd ab f1 57 bd e9 ca a1 bc
       0.008137099 -0.05657667 -0.052720707 -0.019750075
000240 c6 2c a2 bd f1 05 57 3c 25 1d ee 3c 88 23 a1 bd
       -0.07918696 0.013123975 0.029066632 -0.07868105
000250 05 73 16 3d fd df 68 3d 88 a2 0a 3d 95 e0 a3 bb
       0.036730785 0.056854237 0.033846408 -0.0050011375
000260 0b b0 f0 3c a8 52 d1 3c 6d 7d 79 bd 3f a7 b8 bd
       0.029380819 0.025552109 -0.06091063 -0.09016275
000270 ac 58 94 3c bd 8c 9c bc 78 81 b4 bd 20 e2 32 bc
       0.018108688 -0.019110078 -0.08813757 -0.01091817
000280 80 cc 16 bc 04 e3 dd bc a0 3c 67 3c 67 cf 74 bc
       -0.00920403 -0.027085789 0.014113575 -0.014942027
000290 f2 54 a5 bd 52 06 ee bc 7b 8c 44 3d f3 7e 32 3d
       -0.08072843 -0.029055748 0.047985535 0.0435781
0002a0 c8 7f 36 3c f5 5e a7 bd f7 74 a6 3d 6a f0 98 3d
       0.011138864 -0.081724085 0.08127778 0.0746773
0002b0 99 93 5f bd 10 99 96 3d 58 f5 2d 3d 10 fe b2 bd
       -0.05458412 0.07353413 0.042470306 -0.08739865
0002c0 5f c4 75 3d f8 89 79 3d 88 ec 91 bd b9 4e 5f bd
       0.060001727 0.060922593 -0.07125193 -0.054518435
0002d0 86 f8 98 3b 69 d5 60 bd a5 d4 1e bd 6b 71 6e 3d
       0.004668298 -0.054891024 -0.038777012 0.058213633
0002e0 9e 62 bc bd 4c 4e 3a bd a0 76 e3 3c b3 f9 ad bc
       -0.09198497 -0.045484826 0.027766526 -0.02123723
0002f0 87 c3 8e bd 07 b5 3a 3b bc 51 53 3d f9 0e a0 3d
       -0.06970888 0.0028489248 0.05159162 0.07815356
000300 da 25 5b 3d 9b 0e 76 bd dd b1 7c bd 23 6b 80 3d
       0.053502895 -0.060072523 -0.06169306 0.06270435
000310 9a 7c 18 3d 21 5d c0 bd 4a 1d 9a bd 43 f2 c0 bd
       0.037228204 -0.09392763 -0.07525118 -0.09421208
000320 e0 af d3 3b 06 f4 70 bd c3 77 b9 bd 60 f5 5a 3c
       0.006460175 -0.05882647 -0.09056046 0.013364166
000330 32 9a 26 3d 7c 1c 67 bd 7d ea cc bc 40 67 84 ba
       0.040674396 -0.05642365 -0.025014156 -0.0010101572
000340 3f a3 87 3d 8b b6 59 3d 25 3a a4 3d 1f f5 f4 bc
       0.066229336 0.053152602 0.08018903 -0.02990204
000350 fb 26 93 bd 53 d8 3f bd 67 e3 24 bd 9e 59 49 3d
       -0.07185169 -0.046837162 -0.04025593 0.04915773
000360 4f 19 c6 bc e0 03 da 3c 1d c1 a5 bd 38 73 89 bd
       -0.02418199 0.026613176 -0.08093474 -0.06711429
000370 91 70 17 bd 00 6c 03 3c 11 d2 8d 3d 51 f9 29 bd
       -0.036972586 0.008021355 0.069248326 -0.041497532
000380 5e 5f a9 3c 14 71 a3 bc 1c f8 00 3d eb 69 56 bc
       0.020675357 -0.01995138 0.031486616 -0.013086776
000390 c8 d5 a6 3c c7 90 66 bd b7 c2 5f 3d 72 85 9e bd
       0.02036561 -0.056290414 0.054629054 -0.077402964
0003a0 56 25 5f bd 77 59 24 bc 05 00 a0 3d 80 19 51 3d
       -0.054478966 -0.010031096 0.07812504 0.05104971
0003b0 04 b0 1b 3d 5d f2 82 bd 02 5f 79 3d a1 a7 a0 ba
       0.03800966 -0.063938834 0.060881622 -0.0012256989
0003c0 05 fd 27 bd 92 51 15 3d 58 78 52 3c c8 d5 56 3d
       -0.041012783 0.036454745 0.012846075 0.05244997
0003d0 75 40 a5 bc df 3d 9d 3b 60 bc b5 3c 9b 59 93 3d
       -0.020172337 0.0047986354 0.02218455 0.07194825
0003e0 a4 c9 fc 38 22 9b 06 3d 55 30 2d bd 4a 09 d9 3c
       0.00012053855 0.03286279 -0.04228242 0.026493687
0003f0 28 fb 24 3c 50 4d 0e 3c 04 a1 88 bc c6 06 0b 3c
       0.010069646 0.008685425 -0.01667834 0.008485502

fc2.bias f4 [128]
000000 49 29 b2 bd 26 d0 e9 bc 98 51 19 bd 8d d2 9a 3d
       -0.08699281 -0.028541636 -0.03743133 0.075596906
000010 d8 68 30 3b 59 79 ff bb 5d 92 8a 3d ca 51 40 bd
       0.002691796 -0.007796448 0.06766198 -0.046953
000020 8d 80 bc bd 84 83 b5 3c 99 6f 4d 3d 97 8a a3 3c
       -0.092042066 0.022157438 0.050155256 0.019963546
000030 58 6d b5 bd 82 f5 8a 3d 89 b7 06 be b9 70 45 bd
       -0.08858746 0.06785108 -0.1315595 -0.048203204
000040 9d 99 9e bd 02 62 88 bd 59 c5 7b 3c d8 46 52 bc
       -0.07744143 -0.066593185 0.015366876 -0.012834273
000050 18 bb f2 3c f7 2e 67 3a 8b 73 23 bd a7 2b 6f 3c
       0.029630229 0.0008818949 -0.039905112 0.01459781
000060 84 0f 92 3c 9e c9 62 3c ea 4c ed bc a6 3b 8b bc
       0.017829664 0.013842015 -0.02896734 -0.016996216
000070 6f 7d 89 bd bf b2 b1 bd 08 cf 1e 3d 1f 8a 3b bd
       -0.06713378 -0.08676671 0.03877166 -0.04578602
000080 1c a5 ab bc 5a 84 80 3d 9b 2e 14 bd 91 d3 2a 3d
       -0.020952754 0.06275244 -0.03617726 0.04170567
000090 cd 64 59 3d 1f f7 01 bd 22 ea 9e bd 9f b4 2d 3c
       0.053074647 -0.031729814 -0.07759501 0.010602145
0000a0 8c 49 a5 bd 3f 72 54 3c 8c d1 15 b7 e8 07 29 3c
       -0.080706686 0.0129666915 -8.929881e-06 0.010316826
0000b0 6d 0b d9 3c a1 03 c8 3b 81 f1 a2 bc 51 a7 92 bd
       0.026494706 0.006103948 -0.019890549 -0.07160819
0000c0 9d dc 8b 3d 65 6a aa bc 5b 74 9f 3d 17 f4 45 3d
       0.06829188 -0.020802686 0.07785865 0.048328485
0000d0 89 41 b2 bd ad ff d5 3d 9b e4 31 bd 4b 12 ca 3d
       -0.08703906 0.10449157 -0.043430906 0.0986677
0000e0 c4 18 31 bd 1f 47 16 3c 9e 66 f7 bb 7c ba 0d bb
       -0.04323651 0.00917223 -0.0075500747 -0.0021626046
0000f0 b2 10 13 3d fb 70 1d 3d 70 7a 87 3d ec 08 7a 3d
       0.035904594 0.038437825 0.0661515 0.061043665
000100 11 07 62 bd a8 3f 28 bd 5e 8e 39 bd 85 cf 69 3c
       -0.05518252 -0.041076332 -0.045301788 0.014270668
000110 a4 cb 04 be 93 4a 89 bd cb 7d 44 3d 96 1e 80 bd
       -0.12968308 -0.06703677 0.047971528 -0.06255834
000120 62 1e f5 bc 67 f3 9d 3d 6e ac 27 bd 04 59 7e 3c
       -0.029921714 0.07712441 -0.040935926 0.015524153
000130 2c c4 ee 3d 8b b1 42 bc 4f 42 8c 3d 9c 99 6e 3c
       0.116585106 -0.01188315 0.06848585 0.0145629905
000140 c5 b1 db 3d c4 81 b7 3d bb d8 86 bc fe 7f 99 bd
       0.10727266 0.08960298 -0.016460767 -0.07495116
000150 27 4f a4 bd e9 06 1a bd 34 d3 8c 3d 9b 2e 7b bd
       -0.080229096 -0.037604246 0.06876221 -0.061323743
000160 93 09 b8 3c ca 0e 3e 3c 9c 5c 8c bd cb a0 43 3d
       0.022465503 0.011600206 -0.06853601 0.047760766
000170 31 38 b0 bd 8f 13 81 3d 1f 38 91 3d ee 73 43 3a
       -0.08604468 0.06302559 0.070907824 0.00074559345
000180 c8 06 9b bc 3f af 88 3d cd 4d 93 3d f4 09 e2 bd
       -0.018924132 0.066740505 0.07192574 -0.11037055
000190 7b 75 ae bd 2e 26 f6 bc 57 c8 a3 3d f9 70 ad bc
       -0.08518501 -0.030047502 0.07997196 -0.021172034
0001a0 37 97 76 bd 70 ed 9f bd b9 23 2b bd 61 ae bd bd
       -0.060202803 -0.078089595 -0.041782115 -0.09261776
0001b0 6e 3f d1 bd ba 87 85 bb 50 9c 19 bd 2b 73 99 3a
       -0.102171764 -0.0040750178 -0.037502587 0.0011707296
0001c0 07 0b c3 3d 31 ea 71 3d 1e 98 8e 3b 86 e2 7f bd
       0.09523588 0.059061233 0.00435163 -0.06247189
0001d0 5d bd 80 3c 2d 36 fc ba 54 3d 8d 3d 9b 8f 9c bc
       0.015715295 -0.001924222 0.06896463 -0.019111445
0001e0 79 7d bd 3d ed a8 c3 3c 01 6f b4 3d cf b9 09 3d
       0.09252448 0.023884261 0.08810235 0.033624467
0001f0 51 05 d6 3d 4c d9 b3 bc df 5d 48 bd 18 53 2b 3b
       0.10450233 -0.021954201 -0.048917647 0.0026142057
