models/agent_right.pth (torch, 294297 bytes, 24 tensors)

fc1.weight f4 [128, 6]
000000 d3 ca 13 3c c0 8d 04 bf 3b 7a eb bd 34 03 e9 be
       0.009020525 -0.51778793 -0.11497923 -0.45510256
000010 c8 60 91 3e f2 1c be 3e 4b c1 15 3d ee 41 5b be
       0.2839415 0.3713146 0.03656129 -0.21411869
000020 a3 64 8b be 5c 40 44 bd ed 03 05 3e b4 5d 28 bd
       -0.27225217 -0.04791294 0.12989779 -0.041104987
000030 60 bc 5f 3d 5e 28 42 be 71 5c e0 bd ab 1c 0b bf
       0.054623008 -0.18960711 -0.10955132 -0.5434062
000040 b5 31 c0 3d 7f 2f 01 bd 95 ee d5 3b ed fa 2e 3e
       0.09384481 -0.031539436 0.0065286853 0.17087908
000050 e4 29 a8 be 63 9d da bd 48 d7 38 be a4 94 f4 3d
       -0.3284446 -0.106745504 -0.18050873 0.119424134
000060 27 40 f6 3e 44 ff 18 be 67 5d 1e 3c d8 e7 e6 bd
       0.4809582 -0.14941126 0.009665824 -0.112746894
000070 a6 c3 92 3e d0 7a d5 bc d1 d0 2c bd 16 0f b6 be
       0.28664893 -0.026059538 -0.04219133 -0.35558385
000080 a5 90 cd be 85 b6 2e bf a2 2e 91 3e 78 4b 45 3e
       -0.40149418 -0.6824725 0.2835589 0.1926707
000090 30 f3 b7 be 12 bf b9 be 01 81 bf 3c 0d f0 1b bf
       -0.35927725 -0.36278588 0.023376944 -0.60913163
0000a0 89 7d fc be fd 2a 59 3d 7a 33 f4 3d ea be 2a 3e
       -0.49314526 0.053019512 0.11923881 0.1667439
0000b0 f3 fe 87 bd 4e 0b c3 3e fc 4e 78 be c5 58 94 3c
       -0.066404246 0.38094562 -0.2424888 0.018108735
0000c0 88 ed 1d 3d 31 ca 82 be cc f8 12 bf 60 19 86 3e
       0.038556606 -0.25544885 -0.57410884 0.26191235
0000d0 aa 3b 5b be e6 d6 44 be d4 46 9b 3e 40 89 44 be
       -0.21409479 -0.19222602 0.30327475 -0.19192982
0000e0 c3 d2 14 3f 91 79 05 be 38 82 94 3e 83 d2 66 3e
       0.58134097 -0.13034655 0.290056 0.22541241
0000f0 f3 ea f9 3e 8a 00 01 bd 62 d6 97 be cc 91 d2 3d
       0.48812065 -0.031494655 -0.2965575 0.10281715
000100 67 f5 c9 3e 21 38 83 bd 6f 58 d5 3d 88 db b4 3e
       0.3944504 -0.0640719 0.10417258 0.3532374
000110 4d d9 8d 3d 03 24 89 3d 5f 32 df be df b4 03 3d
       0.069262125 0.06696322 -0.43593118 0.032154914
000120 7c 3d 2b be 50 1b a1 3e 7a 07 d3 be fe 54 30 3e
       -0.16722673 0.3146615 -0.41216642 0.17219922
000130 b9 21 98 3e ed 0f d4 be 58 f5 e9 3d 02 c2 df bc
       0.29713228 -0.414184 0.11423749 -0.02731419
000140 47 42 d6 3d 46 4d 8f 3e 29 c5 60 3e dd 7c b2 be
       0.1046186 0.27988642 0.2195021 -0.34860888
000150 99 be 53 be bf 5b c1 3e ca 3f 49 bf 05 e0 94 3e
       -0.20678176 0.3776531 -0.7861296 0.29077163
000160 3c a6 24 3e 8c 8e ba 3e c1 13 26 bd 37 cc a7 be
       0.16079038 0.3643688 -0.040546183 -0.3277299
000170 97 9e dc be 12 4f a8 3c 18 12 a4 bd 32 d7 c1 3e
       -0.43089744 0.020545516 -0.080112636 0.37859493
000180 74 58 21 3e 84 68 52 be 3d 7f 47 3e 11 c3 31 3d
       0.15756398 -0.20547682 0.19482131 0.04339892
000190 27 c0 9b 3e 95 90 32 bd 16 ab 8c 3e 1f 0d 3a be
       0.30420038 -0.043594915 0.27474278 -0.18169068
0001a0 7d fa d2 3e f3 7f de 3c ed 26 13 3d 40 9e 64 3e
       0.41206732 0.02716062 0.035925794 0.22325993
0001b0 70 e2 26 3e 58 13 78 be be 1f 19 3f f5 f1 ef bd
       0.16297317 -0.24226129 0.5981406 -0.117160715
0001c0 2d 69 ac 3e f3 f5 4c 3e 06 0c 37 be 39 5b 8c be
       0.33673993 0.20015697 -0.1787568 -0.27413347
0001d0 65 af 15 bf f5 7b ea bd 6a 02 57 3e 21 2b 6a 3e
       -0.58470756 -0.11449424 0.20997015 0.22868015
0001e0 a1 45 00 bf 82 8b a6 3d e0 b2 bd be 49 5f cb bb
       -0.50106245 0.08132078 -0.37050533 -0.0062064272
0001f0 c5 b2 1d 3e 7a 9e fc 3e 9c 15 6e bd 62 bb 4b 3e
       0.15400226 0.49339658 -0.058126077 0.198957
000200 c2 d8 bf be 3b 32 c1 3e 76 8e 53 be ba fb 1b 3e
       -0.3747006 0.37733635 -0.20659813 0.15232745
000210 7e aa 8a be 87 fc fc bc da 98 c0 3e 52 18 19 be
       -0.270832 -0.030882133 0.37616616 -0.14950684
000220 1d 4e d9 3e e6 bc c9 bb 79 80 33 bd ce 6a c2 3e
       0.42442408 -0.0061565517 -0.043823693 0.3797211
000230 cd f0 78 3e ef 4d 31 bc 8d a3 99 bd 03 da a2 be
       0.24310608 -0.0108218035 -0.07501898 -0.31806955
000240 86 63 42 bf 91 a8 27 be c4 06 e4 be 98 c3 60 3c
       -0.7593311 -0.16372897 -0.44536412 0.013718508
000250 ef 74 19 3f f6 57 c7 3e 56 98 e9 be 2a e9 56 3e
       0.5994405 0.38934296 -0.45624036 0.20987383
000260 d4 96 5b be 47 d7 24 3e d0 95 c3 3e c0 0b b2 be
       -0.21444255 0.16097747 0.38200235 -0.3477459
000270 a1 29 0d be c8 70 90 3e 59 a6 e0 3e 27 eb 41 be
       -0.13785411 0.28211045 0.43876913 -0.1893736
000280 06 af cf bd 35 6e 54 3d 29 5f bc be 58 0a 98 3d
       -0.10140805 0.051862914 -0.3679135 0.07423848
000290 8c 75 1d bf 11 70 ae be 76 03 5b be af 28 c3 3e
       -0.6150749 -0.34069875 -0.21388039 0.38116977
0002a0 fa ea d4 bb 47 21 01 be 09 a8 bb 3e f9 df 1d be
       -0.006497738 -0.1261035 0.36651638 -0.1541747
0002b0 af aa 93 3e d1 da f9 3d 2e d4 57 3d 97 98 be 3e
       0.2884116 0.12199939 0.052692585 0.37225792
0002c0 9f 9a 39 3d c5 42 72 3d ff bd 16 3e 30 a3 32 bf
       0.045313474 0.059145708 0.14720915 -0.69780254
0002d0 40 e1 8f bc 62 e6 7c bd 76 99 8f 3e 4d 46 8c be
       -0.017563462 -0.061743148 0.2804677 -0.27397385
0002e0 72 d7 b0 bd 8b 94 79 3e 37 bb 9f 3e 48 c8 34 3d
       -0.08634843 0.24373071 0.3119752 0.044136316
0002f0 26 9c 8d 3d 95 9e 5d 3e 3d cd cb 3d 64 8a 3a 3e
       0.069145486 0.21642525 0.099512555 0.18216854
000300 1a 80 d4 bc e0 8f ff 3d 6d b9 9b be da 3f ab 3e
       -0.02593999 0.12478614 -0.30414906 0.33447152
000310 a7 1a 17 bc 04 d6 a4 3e 18 43 1d 3e 0d e8 3b 3e
       -0.009222663 0.3219453 0.15357625 0.18350239
000320 ed 70 e4 3e 6b 52 7c bd 47 d5 90 3c a9 1a 84 be
       0.44617406 -0.061602037 0.017679824 -0.2580159
000330 8f c1 b8 3e a5 4f 80 be 28 75 c8 bd 8d 2a 5e bd
       0.36085173 -0.25060764 -0.09787971 -0.0542398
000340 f9 5d 9b 3d cb 8d 61 be 68 42 9e 3c 49 2a 99 be
       0.07586283 -0.22026746 0.019318774 -0.29915074
000350 d3 aa 59 be 48 2b b8 be 33 5b df 3b 5a e0 c5 be
       -0.2125657 -0.3597052 0.0068162917 -0.3864773
000360 e6 a8 ec 3e e8 93 71 be b3 f1 57 3e 25 51 11 bd
       0.4622261 -0.23591578 0.21088295 -0.035477776
000370 b9 28 12 be 5a fe cf 3e 92 27 71 3e 6d 84 b2 3d
       -0.14273347 0.40623742 0.23550251 0.087166645
000380 d7 f0 2d 3d fe cf 13 3f 4d 14 47 3e d1 8f b5 bd
       0.04246601 0.57739246 0.19441338 -0.088653214
000390 95 d0 cb 3e c2 06 43 be 2e 5c 79 3e 2f 20 57 be
       0.39807573 -0.19045547 0.2435157 -0.21008371
0003a0 54 70 6e 3e 6c 17 f4 bd 59 75 c6 be 47 9b 8b be
       0.23285037 -0.1191853 -0.38761404 -0.27266905
0003b0 75 89 8f 3d 62 c3 3e be e8 3b a5 3e f3 b2 93 3e
       0.0700864 -0.1862922 0.32272267 0.28847465
0003c0 f2 17 a3 3e 9f fe 75 bc d7 32 47 bd 0a 6a 6c be
       0.31854206 -0.01501432 -0.04863247 -0.23087326
0003d0 38 19 05 3d 3b 77 a2 3e f9 ee 8f bc b3 90 c6 3e
       0.032494754 0.3173159 -0.017570006 0.38782272
0003e0 13 71 5f 3e b4 a2 ef 3e d1 fb ba be 68 de f8 bd
       0.21820478 0.4680382 -0.36520246 -0.121517956
0003f0 ab df 59 3e be 1c a5 3e 06 09 ae be bb 48 7e be
       0.21276729 0.3224849 -0.3399126 -0.24832432

fc1.bias f4 [128]
000000 f8 fe c6 be c3 f9 e0 3e c2 b9 14 3e c2 ab 7c 3e
       -0.388664 0.43940553 0.14523986 0.24674895
000010 5d e8 90 bd 43 55 94 be 55 0c da 3d 9a d4 02 3e
       -0.0707557 -0.289713 0.106468834 0.12776414
000020 0f f9 51 be 73 63 ac 3e 19 c9 85 3d 8e ee 51 be
       -0.20505165 0.33669624 0.06532497 -0.20501158
000030 04 79 8a be 8e f0 45 3d d3 a3 a4 be d2 84 c1 3e
       -0.27045453 0.048325114 -0.32156238 0.37796646
000040 7c a1 83 3e d2 b6 03 be 61 00 9f bc cb c9 92 be
       0.2570914 -0.12862709 -0.01940936 -0.2866958
000050 5d 97 8b be 5a ab 99 3d b7 16 20 3e c4 14 2f 3d
       -0.2726392 0.07503386 0.15633665 0.042744413
000060 f6 5f ab bb 70 7b 9e 3c 74 1f 42 be b5 6e 81 3d
       -0.0052299453 0.019345969 -0.18957311 0.06319944
000070 b1 1c 82 3e c0 4b a3 3d e0 48 17 3e 21 36 1a be
       0.25412515 0.079734325 0.14773893 -0.15059711
000080 1a 21 d3 bc ab 04 91 ba 85 3d 95 3e 9a e6 c6 3d
       -0.02577262 -0.0011064013 0.29148498 0.097119525
000090 e7 b7 45 be 42 27 0c be 6f c6 0c be da ce ee 3e
       -0.19308434 -0.1368685 -0.13747571 0.4664219
0000a0 f5 87 03 3e 34 f8 ff bd 19 be 86 3e 9f 4e 8a 3e
       0.12844832 -0.12498513 0.26316908 0.27013108
0000b0 c1 9c c1 3e 0b 84 8e 3e 9f 4f 94 be 46 16 d0 3d
       0.37814906 0.27835116 -0.28966996 0.10160498
0000c0 e2 2e d2 be 6f fb c0 3e b8 61 b6 3e 90 90 0c bd
       -0.41051394 0.3769183 0.35621428 -0.034317553
0000d0 2d 8e fc bd 23 aa 8b 3e 08 f3 37 be 0c 34 9b bd
       -0.123318054 0.27278242 -0.17963803 -0.075782865
0000e0 0d b0 d4 3d f8 22 57 be 5f 37 f1 bc ca c9 93 3e
       0.103851415 -0.21009433 -0.029445348 0.2886489
0000f0 1b 60 3b 3e cd 51 68 3e 9f bd 16 3e f7 84 86 bd
       0.1829838 0.22687455 0.14720772 -0.0656833
000100 f4 61 8d 3e f8 41 0f bd e0 0d ea bd 5d 44 4a bb
       0.27613795 -0.034975022 -0.11428428 -0.0030863502
000110 d4 bc 30 3e d2 36 b8 bd e8 b6 c8 be c6 90 20 3d
       0.17259532 -0.08994831 -0.39202046 0.039200567
000120 4b 7f 96 3e 9c e7 0d be 8a 9f d3 be 12 2c d1 bd
       0.29393992 -0.13857883 -0.41332656 -0.10213484
000130 9f c8 1c 3d 5d 58 93 be 70 30 f2 be a7 44 26 3e
       0.038277265 -0.28778353 -0.4730258 0.16237126
000140 36 13 51 bd bb d5 92 3d bc 3a 6a be 6e 83 9a 3e
       -0.05104371 0.07169672 -0.22873968 0.30178398
000150 73 cf 9f 3e 31 62 cf be 3b b9 10 3e 95 00 7e 3c
       0.3121296 -0.40504602 0.1413316 0.015503068
000160 c1 e2 ce 3d b5 72 49 3e 06 72 b3 be cb c4 ec 3d
       0.101018436 0.19672664 -0.3504793 0.11560973
000170 58 88 ab 3e 01 2c f8 3d 5b 5d a2 3e 80 92 ef 3d
       0.3350246 0.12117768 0.3171185 0.116978645
000180 ae fd 9b 3e a2 a6 3d 3e 01 60 48 3e ce 0f 0a 3e
       0.3046698 0.18520597 0.19567873 0.13482592
000190 45 15 59 bd 57 ff 8c be e8 a7 86 3e 4b 7a 5d 3d
       -0.0529988 -0.2753856 0.26299977 0.054071706
0001a0 cc 79 4a 3d c1 2e cf bd 97 40 59 be b5 3d 80 3e
       0.04943256 -0.101163395 -0.21216045 0.2504708
0001b0 bd 09 59 be 7b 96 eb bc 92 a3 94 3d 17 6c 96 be
       -0.21195121 -0.028758278 0.07257761 -0.2937934
0001c0 c5 08 85 3d 06 74 74 bd 83 78 0e be a1 fd 28 be
       0.06495813 -0.05968096 -0.13913159 -0.16503002
0001d0 7d 0d 0e 3e 4e d3 f0 bc ca e2 07 3e a6 f4 93 be
       0.13872333 -0.029397633 0.13270107 -0.2889759
0001e0 96 dc 21 be c1 e9 d6 3d e0 b1 af be 6b c4 8d be
       -0.15806803 0.10493804 -0.34315395 -0.27688918
0001f0 34 ab f7 3c 8d 7e e7 3e 82 6c 40 3e e8 44 f7 3d
       0.030233003 0.45213738 0.18791392 0.1207369

fc2.weight f4 [128, 128]
000000 89 d2 9a be c8 e0 bd 3d 69 63 5c bd 12 17 b3 3d
       -0.3023875 0.09271389 -0.053805742 0.08744635
000010 72 50 00 3e db 2a 3f bc cc db fe 3d d7 09 6b 3d
       0.12530687 -0.011667932 0.12444267 0.05738243
000020 98 1c 53 bc c9 fc 08 3d ba 90 b8 3d 82 3e 9c 3e
       -0.012885235 0.0334442 0.090119794 0.3051644
000030 41 3a 6d 3d 01 5b 5e 3d 6a a4 ce bd 31 39 d7 3b
       0.057916883 0.054286007 -0.10089953 0.006568097
000040 e7 22 f5 3d f4 ad 4f 3c c7 12 9d 3c 97 2e b8 3d
       0.11969548 0.012675751 0.019173993 0.08993261
000050 96 67 b7 bd e3 1c 9a bd d0 4a e3 3d 6c 22 be 3c
       -0.08955304 -0.07525041 0.11098254 0.023209773
000060 83 0d 8b 3e d8 d3 5f 3d 31 c1 5d bd cb 49 27 3d
       0.27158746 0.05464539 -0.05413932 0.04084186
000070 45 6f 88 3d 67 11 72 bd 30 75 8a 3d f7 f7 29 bb
       0.06661848 -0.059098627 0.06760633 -0.0025935152
000080 fe cb 15 bd 62 01 09 bd 2f 7a c6 bd c0 d0 aa bd
       -0.036571495 -0.033448584 -0.096912734 -0.08340597
000090 27 0d 32 be 21 12 07 be bd 92 91 be 8e 43 f4 3d
       -0.1738783 -0.1319051 -0.28432265 0.119269475
0000a0 11 c3 e9 bc 2d 8c 4a be 19 fa fa bc cc 6d 0e bd
       -0.028535398 -0.19780035 -0.030636834 -0.03477268
0000b0 8c d0 82 3d 98 b2 2c 3e b4 32 6b be ac 3e fa 3c
       0.063874334 0.16865003 -0.2296856 0.030547462
0000c0 84 28 00 3e cc 7d 26 bd fd 61 e1 3d 37 31 28 be
       0.12515455 -0.040647313 0.11005018 -0.16425024
0000d0 25 21 f0 bd e9 fd ff 3d 93 db 39 be ab 3b 71 be
       -0.11725072 0.124996014 -0.18150167 -0.23557918
0000e0 62 73 db 3d a3 db e1 39 43 bf 59 3d ec fe b4 bd
       0.10715367 0.00043078986 0.053160917 -0.08837685
0000f0 1a dc 84 bd 32 07 df 3d ea e0 22 bc 66 ee 89 3c
       -0.064872935 0.10890044 -0.009941319 0.01683731
000100 b8 9d b5 bc 56 6d c3 3c 7b a1 dd 3d d7 13 1b be
       -0.022169933 0.023855846 0.108218156 -0.15144287
000110 74 a6 84 3d 74 c0 9c bd 1a 32 a5 be 88 b1 6b 3c
       0.06477061 -0.07653895 -0.32264787 0.0143855885
000120 04 1f 82 3d 39 19 f1 bd ab 1c bb bc 99 d5 80 bd
       0.06353572 -0.11772389 -0.022840818 -0.062907405
000130 1a 2c 11 3e 46 f5 06 bf e8 36 58 bd 60 f5 b4 3d
       0.1417698 -0.5271801 -0.052786738 0.08835864
000140 1e f3 b9 3c ab 63 17 be a4 a4 b2 be 61 45 81 bc
       0.022698935 -0.14784114 -0.34891236 -0.015780153
000150 77 25 ad 3e 68 43 95 be 7b 02 9b 3d a5 5d 07 3d
       0.33817646 -0.2915299 0.075688325 0.03304829
000160 a0 8b b3 3d 6b 60 9e 3d e0 fb 57 3e 7e 9c 43 3d
       0.08766866 0.07733234 0.21092176 0.047756664
000170 22 52 1f 3e 82 66 eb bd bb 0e 15 3e d0 d6 41 bd
       0.15558675 -0.11494161 0.145564 -0.047324
000180 00 46 1b 3e 53 fa 4f 3d f5 cb 88 b9 59 d7 bc bd
       0.15163422 0.050775837 -0.000260919 -0.09220762
000190 f0 0f c8 3d 39 32 24 3d e1 73 d2 3d 02 dc 9e 3d
       0.09768665 0.04008696 0.102760084 0.07756807
0001a0 e9 9b f2 bd 43 84 3b bc 13 c5 7e be bc 62 2a bc
       -0.11846144 -0.011445108 -0.24879865 -0.010399517
0001b0 92 09 0d 3d a7 c3 14 bd 99 a4 93 bd 6a 79 28 bd
       0.034432955 -0.0363194 -0.07209129 -0.041131414
0001c0 03 87 97 be 17 7d 64 3e 97 f5 70 bc 31 b8 05 bd
       -0.29595193 0.22313343 -0.014706991 -0.03264636
0001d0 e3 03 94 3b b9 e8 e2 3b 90 03 c6 bd f4 41 2a 3d
       0.004517065 0.0069247154 -0.09668648 0.041566804
0001e0 0f d3 8c be 28 24 b0 3b 16 56 e6 3b 39 28 47 bd
       -0.27504775 0.005375404 0.007029305 -0.048622344
0001f0 e2 81 56 3c 80 5c c4 3d ce 4d d4 3d 36 62 d9 bd
       0.01309249 0.095879555 0.103664026 -0.106144354
000200 6f bc e7 be 1e 60 38 be 84 8a 0b 3e 64 55 8d bd
       -0.4526095 -0.18005416 0.13627058 -0.069010526
000210 0f 92 e2 3d 49 ee 84 be 44 5a 70 bd a1 40 03 bc
       0.11063015 -0.25963047 -0.058679834 -0.008011014
000220 62 3a b2 bd 09 df f8 bd ba 71 b7 bc 42 f3 4c 3d
       -0.08702542 -0.121519156 -0.022393096 0.050036676
000230 af 6a 9b 3e ce 48 73 bd 10 5d 89 3e ef 79 68 3e
       0.3035483 -0.059395604 0.26828814 0.22702764
000240 45 21 ee bd 9f 5b 41 3c 4c bb 8a bd f2 4c ba bc
       -0.116274394 0.011801629 -0.06774005 -0.022741769
000250 cf 29 1d bd d6 cc 95 be 55 a7 a5 be f3 0d e2 be
       -0.03836995 -0.2925784 -0.32354227 -0.44151267
000260 91 23 00 bd 0b f2 5a ba ab 80 1d 3c b6 b8 a5 3d
       -0.03128392 -0.0008352107 0.009613196 0.080918714
000270 ab f4 31 be 6e 15 94 bd af 05 76 bd fe 9a 43 3d
       -0.1737849 -0.0723065 -0.060064014 0.047755234
000280 8c 70 93 bd b5 ed 9d bd 6f ae 78 3d 3b 27 8a 3d
       -0.07199201 -0.07711355 0.060713228 0.06745764
000290 dc 96 68 3e 73 0b a8 3e 1c d1 9a 3e 46 de 92 be
       0.22713798 0.32821235 0.30237663 -0.28685206
0002a0 05 22 2a bd df 28 12 be d7 ce 61 bd 69 27 36 be
       -0.04153635 -0.14273404 -0.0551289 -0.17788471
0002b0 a8 5e 42 be 63 e3 f4 3b 60 12 9b 3e 99 24 34 3e
       -0.18981421 0.0074733957 0.30287457 0.17592086
0002c0 3a 80 10 3d 8c 1c db 3c 9c 07 b0 be 4a a5 a1 bd
       0.035278536 0.02674701 -0.34380805 -0.078928545
0002d0 d6 30 e0 bd 9f 87 92 3c 91 1e 1b bd 6c ca 00 3f
       -0.10946815 0.017886935 -0.037870947 0.5030887
0002e0 4c 91 21 be de 38 d4 be 71 ff 3a bd f0 b1 ae bd
       -0.15778083 -0.41449636 -0.045653764 -0.08530033
0002f0 0b a5 56 3c 8f 44 7f be 54 c5 b3 bd 32 0c 8c 3e
       0.013100873 -0.24928497 -0.08777872 0.27353054
000300 0d 25 82 bd 1f 8f b5 bd ab e8 69 bc 32 64 74 3b
       -0.06354723 -0.08865189 -0.014276664 0.0037291166
000310 f0 ab 9b be 4e c0 7c bd b1 17 f3 3d 33 84 a9 bc
       -0.30404615 -0.061706834 0.11869753 -0.02069292
000320 97 7e ce be 78 3a 0b 3f 81 8a 9b bd 23 00 4f 3e
       -0.40330955 0.5438609 -0.07594777 0.20214896
000330 d3 35 35 3e df 62 0f 40 02 c6 7e 3d 18 5f 88 bc
       0.17696314 2.2404096 0.062200554 -0.016646907
000340 8c ad 63 bd 24 8b c3 3d 65 50 30 3e 38 48 9a bd
       -0.05558543 0.09548023 0.17218168 -0.07533306
000350 16 4d a7 be f6 bb b0 3d 9c 01 cc bd 9c e3 e8 bd
       -0.32676 0.08629601 -0.099612445 -0.11371538
000360 85 38 7f bd 79 4a 05 3e 20 95 e0 bd 8c 26 45 3e
       -0.06230976 0.1301669 -0.10965943 0.19252986
000370 e3 ae 6e be 04 d4 cd 3c 37 c7 7d be 38 30 af bd
       -0.23308901 0.025125511 -0.24783026 -0.08554119
000380 14 35 95 be 4c d1 2e bf b0 ba 90 be 33 e0 12 bd
       -0.29142058 -0.6828811 -0.2826743 -0.035858344
000390 b8 c6 42 bd 58 37 80 bd 85 a6 2b bd fd bd c0 bd
       -0.047552794 -0.06260556 -0.041906852 -0.094112374
0003a0 22 e0 8a 3d bb 49 db 3b ba 39 0c bc 2e c4 31 3e
       0.06781031 0.006692139 -0.008558685 0.17359993
0003b0 3f 16 d2 3f 1b 17 53 bd 8e c7 d4 bc 73 a0 1f 3e
       1.6413039 -0.051535707 -0.025974061 0.1558855
0003c0 bd 40 5e 3d 76 48 b2 3c 04 1f 4f 3c 3a 58 50 bd
       0.054260958 0.021763068 0.012641672 -0.05086539
0003d0 5c 43 9e be ef 1a ae 3d 71 7e 12 3d bc 55 16 3a
       -0.30910766 0.08501231 0.035765115 0.00057348213
0003e0 e4 4f 2a bc b4 4d a5 bd 2d 38 a1 be 25 63 b4 be
       -0.010395024 -0.08071461 -0.3148817 -0.3523189
0003f0 da fa 80 be 9f 73 0d bf 15 a2 42 3c 05 2e 9b 3e
       -0.25191385 -0.5525455 0.011879464 0.30308548

fc2.bias f4 [128]
000000 ec 32 e4 3d 19 66 f4 bd 3f 3e 0f 3e 87 98 a8 bd
       0.11142525 -0.11933536 0.13988589 -0.08232217
000010 44 0c bd 3c 1c 38 e5 3c ce 21 1a 3d d7 8b 57 3d
       0.023077138 0.027980857 0.037629895 0.052623596
000020 e3 a6 0b 3e 8f 40 26 3d 0b 41 4d bd 2c 20 d4 bd
       0.13637881 0.04058891 -0.050110858 -0.10357699
000030 24 92 51 bd 8c f9 c1 bc 6a db e1 3d f2 7b 14 3d
       -0.05116476 -0.023678564 0.11028178 0.036251016
000040 ba ab db bb d0 46 5c 3d 89 6b 30 bd c9 58 9f bd
       -0.006703821 0.05377847 -0.043071304 -0.07780606
000050 2a 04 49 bd ce 9e 25 bc 2a 6e 4f 3d 3c f1 79 bd
       -0.049076237 -0.010108663 0.05064217 -0.061021075
000060 66 a1 53 bd a3 e4 e0 3c a7 c5 9e bd d2 b4 85 3c
       -0.051667593 0.027452772 -0.07752543 0.016321573
000070 a3 6d 05 be 4b 78 8e bd ca 33 31 bd 7f 85 99 bd
       -0.13030104 -0.06956538 -0.04326228 -0.074961655
000080 f0 0a 9f 3c 93 df 18 bd 28 e5 2e bd b0 65 ad 3d
       0.019414395 -0.037322592 -0.04269901 0.08466661
000090 14 1b d1 3d 03 95 be bd a4 ea 47 bd 19 25 90 bc
       0.10210243 -0.093057655 -0.048807755 -0.017595815
0000a0 72 b5 7b 3d f8 92 86 bd 84 99 e2 3d 36 0f 29 bd
       0.061452337 -0.06571001 0.11064437 -0.041274272
0000b0 4d f7 43 3c aa 92 63 bd fa cd 2a 3d 4f 4e e5 3b
       0.011960817 -0.05555979 0.04170034 0.0069978605
0000c0 25 d1 c1 bd 07 3a 2d 3d fd d5 6b 3c c8 92 48 bd
       -0.09463719 0.042291667 0.0143942805 -0.048968107
0000d0 26 52 59 3d 7a 39 46 bd 11 bc 30 bd da 25 bf 3d
       0.05305686 -0.048394658 -0.043148104 0.093333915
0000e0 bb b5 b7 3d 0e 59 a1 bd 49 2c 7f 3d 98 6d a6 3d
       0.08970209 -0.07878314 0.062298093 0.08126372
0000f0 40 20 d5 3d 6b 3c 7d bd 34 91 4d bd 79 cd 24 bd
       0.10406542 -0.061825197 -0.050187305 -0.040235016
000100 fe b1 11 3d b8 05 03 be 0f 50 22 bc 55 6b 9e bc
       0.035570137 -0.1279515 -0.009906783 -0.01933829
000110 3f af d4 3c ff 4d 27 3c 08 b0 24 bd 22 09 5e bd
       0.02596247 0.010211467 -0.04020694 -0.05420793
000120 90 e5 a1 38 0f 25 ba 3d 4f 5d c3 3d 63 33 73 bc
       7.7198376e-05 0.090890996 0.095392816 -0.0148437945
000130 88 a3 8f bd c8 8b 98 bc 1a e1 93 bd 34 5e 8c 3d
       -0.07013613 -0.01862134 -0.07220669 0.06853905
000140 17 57 05 be 24 a9 cd bd cf 25 86 3d 3d 0c bc 3d
       -0.13021503 -0.10042027 0.0655018 0.09182022
000150 9b 35 bb bc 70 be b4 3d 89 e4 c9 bd 92 98 8c bb
       -0.02285271 0.088253856 -0.09858043 -0.0042906487
000160 8e a1 5e bd cc 51 ce bd 57 f6 b5 bc 68 dd 4d bd
       -0.05435329 -0.10074195 -0.02221219 -0.050259978
000170 3a 8e b9 3d 2d dc 0b bc 57 5b 00 bd b4 f3 8c bd
       0.09060331 -0.008536381 -0.03133711 -0.0688242
000180 a2 32 09 bd 17 a1 9d bd 59 26 05 3d c2 bf fd bc
       -0.033495553 -0.07696741 0.032507274 -0.030975226
000190 d0 72 6a bc a3 e1 77 3d 39 20 4a bd 1d 36 07 3c
       -0.0143096 0.06051792 -0.049347136 0.008252648
0001a0 5d 08 f9 bc 12 ec 89 bc 26 fc 1d 3d 4c ba 59 bd
       -0.030399496 -0.0168362 0.038570546 -0.053156182
0001b0 d2 de 24 bd 1b e1 4e bd ba a5 25 3d d7 62 3f 3c
       -0.04025156 -0.050507646 0.040441252 0.01168128
0001c0 5a 52 bf bc ad 70 b8 bd 1a 7c e3 bd 25 45 99 bc
       -0.023354698 -0.09005866 -0.11107655 -0.018709728
0001d0 40 a0 7b ba be 30 9e 3b 33 ee a9 bd 98 a7 8d 3d
       -0.0009598769 0.004827588 -0.08297386 0.069167316
0001e0 4c f5 e3 bb b3 50 a7 bc 18 09 40 bd 0f d3 af bd
       -0.006956732 -0.020424223 -0.046883672 -0.08585178
0001f0 52 4e 9a 3d c8 a7 a8 bd bc fe aa 3d 11 07 0d bc
       0.0753447 -0.08235127 0.08349368 -0.008607642

out.weight f4 [3, 128]
000000 5b 74 22 3e d0 35 06 c0 eb 3e 6e 3e fe 81 9f bd
       0.15864699 -2.0970345 0.23266189 -0.07788466
000010 49 c1 10 3f c4 2d 15 3e 35 14 07 be 70 cb e5 3d
       0.5654493 0.1456824 -0.13191302 0.11220443
000020 d8 42 44 be 33 09 6d 3e 35 8f cf 3d 79 5d ad bc
       -0.19166124 0.2314804 0.101347364 -0.021162735
000030 7a 1a 8d 3e 99 0e f0 3e ee 48 83 bc f5 d0 bb bd
       0.27559263 0.46886137 -0.016025987 -0.09170715
000040 1e 84 7f 3e 2c 64 1c 3e 91 39 5b be bb a3 67 3b
       0.24952742 0.15272588 -0.21408679 0.0035345394
000050 db 0c f2 bd d6 5b 0e 3e f2 c4 54 be f3 95 5a 3e
       -0.11818858 0.1390222 -0.20778254 0.21346264
000060 8d 1e 28 3c cc 44 c3 3c b9 19 c7 3d bc 3a f6 3d
       0.01026119 0.023836516 0.09721703 0.120229214
000070 3b 56 f8 bf 3d 42 60 3e ad 6f 46 bd 00 5d b5 39
       -1.9401315 0.21900268 -0.048446346 0.000345923
000080 a4 1c ee 3d f6 c6 3c 3e 05 cb 2c be 1a 44 07 3e
       0.116265565 0.18435273 -0.16874321 0.13209572
000090 46 92 d6 bd b9 c1 f8 bc 3e 66 da be 5d f0 8a 3d
       -0.10477118 -0.030365812 -0.4265613 0.06784127
0000a0 84 31 27 be a4 de 17 3b 08 10 1e be 5a e4 85 bf
       -0.16327482 0.0023173476 -0.15435803 -1.0460312
0000b0 d1 9b 17 3e 3d bb 24 3e 1d 0d a8 3e 8a eb 07 be
       0.14805533 0.1608705 0.32822505 -0.13273445
0000c0 ce 64 0d bd 63 6d b4 3e 8d a5 da bd ac 0f 91 bc
       -0.034519963 0.35239705 -0.106761076 -0.017707668
0000d0 2c 90 cd bd 8a d3 99 bd 72 58 dd ba 08 cd 5b bd
       -0.10037264 -0.07511051 -0.0016887321 -0.05366233
0000e0 14 a1 bb 3d 90 6b 37 3c 4d 3f 41 bd 5f ce 96 3e
       0.091615826 0.0111950785 -0.04717951 0.29454324
0000f0 5d b4 2a be 18 87 80 3e 90 16 bc be e4 31 3b 3e
       -0.16670366 0.25103068 -0.36735964 0.1828075
000100 e8 13 98 3e 17 88 94 bd 69 1b cc 3d b5 35 5b be
       0.29702687 -0.072525196 0.099661656 -0.21407206
000110 10 16 27 bf f7 bf 70 be 56 bc 00 3e 09 9c 1c 3e
       -0.6526804 -0.23510729 0.12571844 0.15293898
000120 d5 5e 2a 3e 16 ca ea bd 79 31 d4 3d 1a f4 2d bb
       0.16637738 -0.11464326 0.10360999 -0.00265432
000130 94 ce 8b be 04 21 18 3d 42 ac 7c 3d cc d5 33 3d
       -0.27306044 0.03714086 0.061687715 0.043905064
000140 c4 ee 2e bf 9a f1 c7 be 33 2c 20 3e ce 4d 0e 3e
       -0.6833308 -0.39051515 0.1564186 0.13896868
000150 cf 78 54 3d b8 a9 77 bd 5f 69 a1 bd b4 d9 3b be
       0.051873025 -0.06046459 -0.07881426 -0.18344766
000160 5b 17 d0 bd 65 53 a1 3d 5e a9 97 3e c5 e4 00 3f
       -0.10160705 0.07877234 0.29621404 0.50349075
000170 dd 61 b9 3d 74 f3 c4 be 04 9c 20 3f 56 9c 76 bb
       0.09051869 -0.3846699 0.6273806 -0.0037629805
000180 77 bc 03 3e 40 64 40 be cf c0 13 3e fa 57 26 3e
       0.12864862 -0.18788242 0.1442902 0.16244498
000190 51 02 53 bd 40 4b 4e 3e 87 4f 7c bf 86 eb f6 3d
       -0.05151588 0.20145893 -0.9855885 0.12056641
0001a0 f3 f6 2e be 77 6d 48 3e b8 e5 60 be 1f c6 57 bd
       -0.17086391 0.19573008 -0.21962631 -0.052679177
0001b0 07 6b 95 3e 31 2b e9 bd 4c 25 b2 bc 7b 13 22 3e
       0.29183218 -0.11385191 -0.0217463 0.15827744
0001c0 7d 4d ab bf 95 ac 3a be f3 8a 50 3e 25 27 43 bd
       -1.3383023 -0.18229897 0.20365505 -0.047644753
0001d0 71 d8 47 be cb 6f 6c 3f ca 8f c4 3e 77 b4 aa bc
       -0.1951616 0.9235808 0.38390952 -0.020838005
0001e0 82 52 70 3c 87 29 30 be c9 b2 fc 3d 43 c4 7b bd
       0.014668109 -0.17203341 0.12338788 -0.061466467
0001f0 f6 0c 1a 3e 47 0c e5 bc c1 93 70 be cf 18 38 3e
       0.15044007 -0.027959956 -0.23493864 0.17978214
000200 05 53 98 3a d7 d0 19 c0 05 7a 77 3e 72 09 67 bd
       0.0011621421 -2.4033716 0.2416764 -0.056405492
000210 77 3a e2 3e 71 e1 c5 3d ce 4b d8 bd c5 ac 4b 3e
       0.4418523 0.0966214 -0.105613336 0.19890125
000220 13 c3 1a bd fa 8d 70 3e fe 59 12 3e d9 45 71 bd
       -0.037783694 0.2349166 0.14292142 -0.058904503
000230 94 2d 31 3e a6 27 f1 3e 92 90 4f 3e 61 d9 ff bd
       0.17302543 0.47100562 0.20269993 -0.124926336
000240 ea 2e 89 3e d1 d0 fe 3d c8 bf 4e be 2c 1f 4c 3d
       0.26793605 0.12442172 -0.20190346 0.049834415
000250 73 6a 25 be 73 e2 cc 3d f0 d0 64 be 10 59 2e 3e
       -0.16153888 0.10004129 -0.22345328 0.17026162
000260 07 3f 4d 3c 68 2f 2a 3d 53 67 0f 3e c1 67 07 3e
       0.012527234 0.041549116 0.14004259 0.13223173
000270 83 d8 f7 bf e5 2d 75 3e 7c 4d 35 3d 95 af 86 3d
       -1.9362949 0.23943289 0.044263348 0.06576458
000280 45 26 86 3e 46 1d 9e 3e 30 36 18 be dd 4c ac 3d
       0.26201072 0.3088171 -0.14864421 0.08413098
000290 7a 29 1d be a0 58 12 3d 69 9c f0 be 5a 05 78 3d
       -0.15347853 0.03572905 -0.4699433 0.06055198
0002a0 3d 45 2d 3e 7f 0c 91 bd db 2a 0e be 90 ea a5 bf
       0.16920944 -0.070824616 -0.13883536 -1.2962208
0002b0 16 51 b6 3d e3 a3 12 3e 13 4c b6 3e e0 6c 3a be
       0.08902185 0.1432033 0.35604915 -0.18205595
0002c0 e7 3e 61 bd 69 d8 d3 3e c1 5c b0 bd a0 0d b2 3c
       -0.05499163 0.41376045 -0.086114414 0.021735013
0002d0 b4 33 d5 bd cb 2e 53 bc a5 85 5e 3d 4c 59 a9 bd
       -0.10410252 -0.012889574 0.054326672 -0.08268985
0002e0 85 19 17 3e d9 2a a7 bd ee b5 6a bd 0f 13 76 3e
       0.14755829 -0.081624694 -0.057302408 0.24030708
0002f0 32 60 1d be 26 e7 92 3e c8 a9 b5 be fb 67 1a bc
       -0.15368727 0.28691977 -0.35481095 -0.009424205
000300 c9 2b 92 3e f6 40 67 be 1c de 45 3e 84 a9 7a be
       0.2854903 -0.22583374 0.19323009 -0.24478728
000310 a4 28 2a bf 14 c7 8e be 44 13 da 3d b3 c3 1b 3e
       -0.6646826 -0.2788626 0.10648206 0.15211372
000320 bb 0c 5f 3e 6a 30 ce bd 4a 95 72 3d 73 46 51 be
       0.217822 -0.10067828 0.059224404 -0.2043703
000330 61 0d 9f be 3b 20 0e bd ae 70 a8 bd da 52 2f 3d
       -0.31064895 -0.034698706 -0.08224617 0.042803623
000340 62 1e 34 bf 0b b9 98 be e5 c2 2c 3e 6f 51 12 3e
       -0.7035886 -0.29828677 0.16871221 0.14288877
000350 b2 f9 bb 3d bb a8 9a bd 86 68 8c bd fe cc 2a be
       0.09178485 -0.07551714 -0.06855874 -0.16679761
000360 7e 85 d3 bd c5 07 a3 3e b4 f2 97 3e 77 f2 01 3f
       -0.10328196 0.31841865 0.29677355 0.50760597
000370 36 85 e0 3d 28 87 a5 be ad 3d 0f 3f 98 9e 32 be
       0.10962908 -0.3232968 0.55953485 -0.17443311
000380 c9 0c ee 3d f4 a7 3c be c5 c7 70 3e e1 f3 4d 3e
       0.11623532 -0.18423444 0.23513706 0.20112564
000390 dd d3 10 bd e5 1c 3e 3e 53 9a 6b bf 3e 88 8f 3c
       -0.0353583 0.1856571 -0.92032355 0.01752102
0003a0 b6 1e 87 be 36 f9 45 3e 6e 8d 6c 3c a1 10 4a 3d
       -0.26390618 0.19333348 0.014438016 0.049332265
0003b0 be 8e 82 3e 78 71 27 bd bd 18 74 bd 5f 3a 21 3e
       0.2549953 -0.040879697 -0.059593905 0.15744923
0003c0 3c db a0 bf 45 0f 0d be c9 f7 6a 3e 52 06 84 3d
       -1.2566905 -0.13775356 0.22946085 0.06446518
0003d0 4c b1 1e be 6a ef 6c 3f 85 52 d8 3e 34 47 a0 bb
       -0.15497321 0.92552817 0.42250457 -0.0048913006
0003e0 46 57 27 bd 18 f4 52 be e5 62 87 3b 02 9e b7 bc
       -0.040854715 -0.20600927 0.004131662 -0.022414211
0003f0 65 17 46 3e b6 79 1e bd 49 6d 42 be 21 ac 37 3e
       0.19344862 -0.03869029 -0.18987001 0.17936756

out.bias f4 [3]
000000 e2 8b cb 3b 69 15 62 3d 57 75 1b 3d
       0.0062117437 0.0551962 0.0379537

fc1.weight f4 [128, 6]
000000 e3 31 15 3c 3d cf 04 bf 1a 27 eb bd 00 c6 e9 be
       0.009106132 -0.5187872 -0.114820674 -0.45658875
000010 32 2c 91 3e 6f cb bd 3e 9a 18 19 3d 5b d0 5a be
       0.2835403 0.3706927 0.037376978 -0.21368544
000020 9f da 8a be ff 01 3d bd 26 6c 05 3e a1 9c 24 bd
       -0.2711992 -0.04614448 0.13029537 -0.040188435
000030 70 aa 5e 3d 22 57 42 be 0d 79 e1 bd a5 4c 0b bf
       0.05436176 -0.18978551 -0.11009417 -0.54413825
000040 ad 9c bf 3d af 08 02 bd 10 7a d7 3b d6 59 2f 3e
       0.093560554 -0.031746563 0.0065758303 0.17124113
000050 91 b7 a7 be 3e f6 da bd ec 73 38 be 74 67 f5 3d
       -0.32757238 -0.10691498 -0.1801297 0.11982623
000060 e8 21 f6 3e c5 92 19 be 88 98 f1 3b 52 cb e8 bd
       0.48072743 -0.14997394 0.0073729195 -0.11366905
000070 28 96 92 3e c8 41 dd bc cc 53 2d bd 43 1e b6 be
       0.28630185 -0.027008906 -0.042316243 -0.35569963
000080 33 b0 cd be 05 d9 2e bf cc 0e 91 3e 66 e8 44 3e
       -0.40173492 -0.68299896 0.28331602 0.19229278
000090 19 06 b8 be 43 b0 b9 be 3b d9 c5 3c b1 bd 1b bf
       -0.35942152 -0.3626729 0.024151435 -0.6083632
0000a0 51 b4 fc be 0f 24 58 3d 18 bf f4 3d 42 d5 2a 3e
       -0.4935632 0.052768763 0.11950511 0.16682914
0000b0 07 98 87 bd 0b 23 c3 3e 94 2b 78 be e6 6d 96 3c
       -0.06620794 0.38112673 -0.24235374 0.01836295
0000c0 ae b1 20 3d 4a db 82 be 52 e1 12 bf 24 15 87 3e
       0.03923195 -0.2555793 -0.5737506 0.26383317
0000d0 6c 09 5b be ea 50 44 be ba 51 9b 3e 99 e6 44 be
       -0.21390313 -0.19171491 0.3033579 -0.19228591
0000e0 a7 d0 14 3f e1 50 04 be 10 81 94 3e 07 20 67 3e
       0.5813088 -0.12921478 0.29004717 0.22570811
0000f0 4a fb f9 3e 44 39 02 bd 8a e9 97 be 6f 64 d3 3d
       0.4882453 -0.031792894 -0.29670364 0.103218906
000100 e1 ff c9 3e 35 96 83 bd ff ea d5 3d 5a fd b4 3e
       0.39453033 -0.06425134 0.104452126 0.35349542
000110 c2 67 8d 3d 29 2c 87 3d 5c 3e df be c7 9c 06 3d
       0.06904556 0.0660022 -0.43602264 0.03286436
000120 98 f9 29 be 7f 1c a1 3e 77 37 d3 be e8 5d 30 3e
       -0.16599119 0.31467053 -0.41253254 0.17223322
000130 ac 48 98 3e 00 e2 d3 be 29 ce e9 3d 26 8d df bc
       0.29742944 -0.41383362 0.11416275 -0.027288985
000140 5a 56 d6 3d fb 17 90 3e cc ce 60 3e 7d 6a b2 be
       0.10465689 0.28143296 0.21953887 -0.3484687
000150 05 de 54 be 89 11 c1 3e 86 fe 48 bf cc 79 94 3e
       -0.20787819 0.3770869 -0.7851337 0.28999174
000160 49 9c 23 3e a0 2d ba 3e e1 60 27 bd d6 02 a8 be
       0.15977587 0.36362934 -0.040863875 -0.32814664
000170 20 15 dd be 55 d1 b4 3c 43 cd a4 bd 5d 90 c1 3e
       -0.4318018 0.022072474 -0.08046963 0.37805453
000180 d7 eb 21 3e 73 05 53 be 62 d1 46 3e c0 59 3e 3d
       0.15812622 -0.20607547 0.1941581 0.04647231
000190 be b6 9b 3e 4c 01 30 bd 52 95 8c 3e ad 4b 3a be
       0.3041286 -0.042969987 0.27457672 -0.1819293
0001a0 39 6e d2 3e 33 65 d7 3c 78 42 13 3d 54 6d 64 3e
       0.41099718 0.026293373 0.03595206 0.2230733
0001b0 f7 de 26 3e e1 9b 78 be 71 dc 18 3f 53 57 ee bd
       0.16295992 -0.24278213 0.59711367 -0.116377495
0001c0 5d 56 ac 3e 76 cd 4c 3e 1f 76 34 be 0f 16 8c be
       0.3365964 0.20000252 -0.17623185 -0.2736058
0001d0 a2 b6 15 bf 07 74 ea bd f3 d2 57 3e 1c 3a 6a 3e
       -0.584818 -0.11447912 0.21076564 0.2287373
0001e0 3f 4d 00 bf 4d 9c a4 3d 2f e5 bd be bd e8 aa bb
       -0.5011787 0.080376245 -0.37088916 -0.005215733
0001f0 ae 1d 1d 3e 6e 7f fc 3e 7a 9e 6d bd 97 31 4c 3e
       0.15343353 0.4931597 -0.058012463 0.19940792
000200 47 29 bf be 2e 14 c2 3e d7 6a 53 be 17 51 1c 3e
       -0.3733618 0.3790602 -0.20646225 0.15265308
000210 c2 af 8a be 57 4d fd bc 48 c8 c0 3e 33 b5 18 be
       -0.27087218 -0.030920668 0.37652802 -0.14912872
000220 17 5c d9 3e cf 97 c6 bb 0e 02 32 bd 9e 97 c2 3e
       0.4245307 -0.0060605775 -0.04345899 0.380063
000230 00 65 79 3e 9b 5b 24 bc db a9 98 bd 9e 85 a2 be
       0.24354935 -0.010031606 -0.07454272 -0.31742567
000240 a5 90 42 bf 5b 23 28 be f0 14 e4 be 80 28 55 3c
       -0.7600196 -0.16419737 -0.44547224 0.013010144
000250 46 4e 19 3f 6c 31 c7 3e 13 00 ea be e6 fd 55 3e
       0.5988506 0.38904893 -0.45703182 0.20897636
000260 36 46 5c be ed ea 23 3e 01 4f c3 3e 64 4d b2 be
       -0.21511158 0.16007586 0.38146213 -0.3482467
000270 8c b2 0c be e3 67 90 3e 0a 7a e0 3e 7d 8d 42 be
       -0.13739985 0.2820426 0.43843108 -0.18999286
000280 da b5 cf bd 3c e9 54 3d e4 b2 bc be aa 14 98 3d
       -0.10142107 0.051980242 -0.36855233 0.07425816
000290 85 bd 1d bf c1 e7 ae be 7f 47 5b be bf 28 c2 3e
       -0.6161731 -0.3416119 -0.21413992 0.37921712
0002a0 9d 7a d6 bb 3a 3e 01 be d5 c7 bb 3e bb 24 1d be
       -0.0065453784 -0.12621394 0.36675897 -0.15346043
0002b0 5f b7 93 3e 74 1b fa 3d dd a7 58 3d 8f 83 be 3e
       0.2885084 0.122122675 0.052894462 0.37209746
0002c0 2b bd 39 3d 10 64 77 3d 95 e4 16 3e 41 78 32 bf
       0.04534642 0.06039816 0.14735635 -0.6971474
0002d0 4c db 8e bc 6b 6e 7d bd 30 dc 8f 3e 1b dc 8b be
       -0.017438553 -0.06187288 0.28097677 -0.27316365
0002e0 30 a4 b0 bd e9 b8 79 3e 61 97 9f 3e 28 26 33 3d
       -0.08625066 0.24386944 0.3117018 0.04373756
0002f0 2c 97 8c 3d 37 2b 5d 3e a6 80 cb 3d 1d 48 3a 3e
       0.06864771 0.21598516 0.09936647 0.18191572
000300 e8 ff d5 bc cb f9 ff 3d 97 84 9b be 4c ad aa 3e
       -0.026123002 0.12498816 -0.30374596 0.3333534
000310 f9 1e 18 bc 34 ea a4 3e 8a 50 1d 3e 95 8c 3b 3e
       -0.009284728 0.32209933 0.15362754 0.18315347
000320 03 29 e4 3e 84 28 77 bd 36 56 90 3c 00 10 84 be
       0.4456254 -0.060341373 0.017619234 -0.25793457
000330 21 a9 b8 3e 37 60 80 be 73 d3 cb bd 16 16 64 bd
       0.36066535 -0.25073406 -0.0995244 -0.055685125
000340 dc e1 9a 3d 7c a6 61 be 79 5b ad 3c ce c6 99 be
       0.075626105 -0.22036165 0.021161782 -0.30034488
000350 da e6 57 be 20 51 b8 be 38 2e b1 3b e0 63 c5 be
       -0.21084157 -0.35999393 0.005407121 -0.3855276
000360 08 7c ec 3e 84 2d 71 be ee 2c 57 3e f6 21 1c bd
       0.46188378 -0.23552519 0.21013233 -0.038118325
000370 4c e7 11 be 0b f9 cf 3e 99 24 71 3e 40 62 b2 3d
       -0.14248389 0.40619692 0.23549117 0.08710146
000380 d2 ed 2a 3d ff ba 13 3f 8c fc 46 3e a6 ba b5 bd
       0.04173071 0.5770721 0.19432276 -0.08873491
000390 e3 ae cb 3e 6a 25 43 be 74 85 77 3e bc bc 58 be
       0.39781865 -0.19057241 0.24172002 -0.21165746
0003a0 8e 44 6e 3e c9 c0 f4 bd 54 19 c6 be 06 97 8b be
       0.23268339 -0.11950833 -0.386912 -0.2726366
0003b0 a8 5f 90 3d d1 4f 3c be f5 50 a5 3e a2 1e 94 3e
       0.07049495 -0.18389823 0.32288328 0.2892962
0003c0 f9 fb a2 3e 8d 99 78 bc 8b ef 47 bd 89 6f 6c be
       0.31832865 -0.015173328 -0.04881243 -0.23089422
0003d0 5d f1 04 3d a2 6d a2 3e 97 b1 97 bc 7c ac c6 3e
       0.032456744 0.31724268 -0.018517299 0.3880347
0003e0 17 fd 5e 3e d1 4e ef 3e 98 0c bb be 07 93 f9 bd
       0.21776234 0.4673982 -0.36533046 -0.12186246
0003f0 0c af 59 3e 12 0d a5 3e 63 f2 ad be a1 ec 7d be
       0.21258181 0.32236534 -0.3397399 -0.24797298

fc1.bias f4 [128]
000000 28 16 c7 be df 63 e1 3e b3 4a 14 3e 72 9a 7d 3e
       -0.3888409 0.44021508 0.1448162 0.24765947
000010 fb 06 93 bd 73 47 94 be d5 78 da 3d 71 eb 02 3e
       -0.07179066 -0.2896076 0.10667578 0.12785126
000020 f8 30 52 be 33 66 ac 3e 77 ac 85 3d 81 b7 51 be
       -0.20526493 0.33671722 0.06527036 -0.20480157
000030 78 3c 8a be 8c 61 46 3d 80 10 a5 be 94 27 c1 3e
       -0.2699926 0.04843287 -0.3223915 0.37725508
000040 94 8e 83 3e 31 11 04 be 98 7d a2 bc 55 9d 92 be
       0.25694716 -0.12897183 -0.019835278 -0.2863566
000050 6d af 8b be fa 45 9a 3d bf 5e 20 3e d6 8e 31 3d
       -0.27282277 0.07532878 0.15661143 0.04334911
000060 c3 1f bd bb 51 b1 98 3c 51 69 42 be e2 7f 7d 3d
       -0.0057716086 0.018639239 -0.18985488 0.061889537
000070 25 35 82 3e 30 6f a4 3d 3a a1 17 3e c0 85 1a be
       0.2543117 0.0802902 0.14807597 -0.15090084
000080 f3 af d2 bc 15 20 a5 ba d9 df 94 3e 88 3d c8 3d
       -0.025718665 -0.0012598062 0.29077032 0.09777361
000090 8f f0 45 be 95 9e 0c be df c3 0d be f3 09 ef 3e
       -0.19330047 -0.13732369 -0.1384425 0.46687278
0000a0 b1 73 03 3e 96 0f 00 be b7 c6 86 3e 11 7e 8a 3e
       0.12837102 -0.12505946 0.26323482 0.27049306
0000b0 84 dd c1 3e 47 49 8e 3e 3f 6d 94 be ca 33 ce 3d
       0.37864316 0.2779028 -0.28989598 0.10068472
0000c0 e5 0f d2 be a6 21 c1 3e ed be b6 3e 23 62 0b bd
       -0.41027752 0.37720984 0.3569254 -0.034029137
0000d0 87 ba fc bd 85 b8 8b 3e 93 41 38 be 6b ee 9b bd
       -0.12340265 0.27289215 -0.17993765 -0.07613834
0000e0 ba 12 d5 3d 50 67 57 be 17 88 f3 bc 6e d0 93 3e
       0.104039624 -0.21035504 -0.029727979 0.28869957
0000f0 00 a1 3b 3e 8d a7 68 3e 0e 42 17 3e 25 12 87 bd
       0.18323135 0.22720166 0.14771292 -0.06595258
000100 aa 80 8d 3e bc 7c 10 bd e0 0d ea bd ec c7 51 bb
       0.27637225 -0.035275206 -0.11428428 -0.0032010032
000110 e3 51 31 3e d2 36 b8 bd 2f 18 c9 be 22 ff 20 3d
       0.17316394 -0.08994831 -0.39276263 0.039305814
000120 5d 34 96 3e 6e 34 0e be 8a 9f d3 be 20 24 d7 bd
       0.29336825 -0.13887188 -0.41332656 -0.10504937
000130 b8 4e 1a 3d a4 e2 92 be 70 30 f2 be 35 f6 27 3e
       0.03767273 -0.28688538 -0.4730258 0.16402514
000140 b2 e3 4e bd e6 01 93 3d c5 b4 6a be 65 a2 9a 3e
       -0.050510116 0.071780965 -0.2292052 0.30202022
000150 cc 37 a0 3e 34 69 cf be 19 a1 11 3e fd eb 7c 3c
       0.3129257 -0.4050995 0.1422161 0.015437123
000160 f2 c6 ce 3d 84 d3 4a 3e 83 12 b3 be 14 50 ec 3d
       0.100965396 0.1980725 -0.3497506 0.11538711
000170 2a f3 ab 3e 1d a6 f7 3d 83 ae a2 3e bf e5 ef 3d
       0.33583957 0.120922305 0.31773767 0.117137425
000180 0b 13 9c 3e 30 26 3e 3e 63 94 48 3e e2 cf 09 3e
       0.3048328 0.18569255 0.19587855 0.13458207
000190 bf 63 59 bd 57 ff 8c be 72 a3 86 3e bf cf 5d 3d
       -0.05307364 -0.2753856 0.26296574 0.0541532
0001a0 89 a9 48 3d 99 ea ce bd 5c 35 58 be 63 2c 80 3e
       0.048989806 -0.1010334 -0.21114105 0.25033864
0001b0 3f 7d 59 be 7e 22 ec bc f1 47 93 3d 9e 13 96 be
       -0.21239184 -0.02882504 0.07191456 -0.29311842
0001c0 11 78 80 3d 04 f2 75 bd e8 31 11 be 5a 7b 29 be
       0.06272901 -0.060045257 -0.14179194 -0.16550961
0001d0 b1 2a 0e 3e 8b 19 f7 bc e7 b5 07 3e a6 f4 93 be
       0.13883473 -0.030163547 0.13252984 -0.2889759
0001e0 eb 52 22 be e5 fc d5 3d af b7 af be 66 a5 8d be
       -0.15851943 0.104486264 -0.34319827 -0.27665251
0001f0 ea b3 f7 3c 59 65 e7 3e ba 59 40 3e bc f9 f6 3d
       0.030237157 0.4519451 0.18784228 0.12059352

fc2.weight f4 [128, 128]
000000 17 73 9a be 4f f6 be 3d fd c3 58 bd cb 8a b3 3d
       -0.30165932 0.093243234 -0.052921284 0.08766707
000010 5a 76 01 3e ae f4 3f bc 1b dd ff 3d 50 e4 6c 3d
       0.12642804 -0.011716051 0.124933444 0.057834923
000020 41 4e 41 bc 32 17 09 3d b9 47 ba 3d 55 72 9d 3e
       -0.011798442 0.033469386 0.09095711 0.3075129
000030 da 35 69 3d 57 63 67 3d c7 d1 ce bd af 9b e2 3b
       0.056936122 0.056491222 -0.100986056 0.0069155316
000040 26 bd f5 3d 25 ef 46 3c 8a 9d 99 3c b4 86 b4 3d
       0.11998968 0.012141977 0.018751878 0.08814755
000050 76 7e b8 bd 18 6b 99 bd 05 68 e2 3d cd 0d bd 3c
       -0.090084955 -0.0749113 0.110549964 0.02307787
000060 24 bb 8a 3e a9 5f 5d 3d 70 6a 63 bd 19 32 28 3d
       0.27095902 0.054046307 -0.05552143 0.0410634
000070 13 27 88 3d a1 0a 6b bd ea 3c 89 3d db cc 12 bb
       0.06648078 -0.057383183 0.067010716 -0.0022399935
000080 67 bf 15 bd 0e 0e 09 bd f5 8b c3 bd 1b 3b a8 bd
       -0.03655949 -0.03346067 -0.09548179 -0.082143985
000090 32 b6 31 be 62 f1 05 be ca e6 90 be 91 b7 f3 3d
       -0.17354658 -0.13080361 -0.28301078 0.11900247
0000a0 97 8d e7 bc c7 05 4a be b2 50 f8 bc ca 98 0e bd
       -0.028265757 -0.19728766 -0.030311916 -0.03481368
0000b0 b3 ec 83 3d ad 33 2e 3e a4 e5 6b be 2e fb fc 3c
       0.06441631 0.170119 -0.2303682 0.03088149
0000c0 c5 f6 00 3e 50 a8 24 bd b5 50 e0 3d 08 f2 26 be
       0.12594135 -0.040199578 0.10952894 -0.16303265
0000d0 26 0e ef bd 5f 7e 00 3e 55 b8 39 be 22 c3 70 be
       -0.116726205 0.12548207 -0.18136723 -0.23511937
0000e0 28 27 d9 3d fc 5d b1 b8 0d df 59 3d f1 76 b3 bd
       0.106031716 -8.457524e-05 0.053191233 -0.08762921
0000f0 65 57 7f bd 16 a3 dd 3d 0f bb 25 bc 22 37 89 3c
       -0.062339205 0.10822122 -0.010115399 0.016749922
000100 fb f5 ba bc 59 bf bf 3c 7b a1 dd 3d c8 cf 18 be
       -0.02282237 0.023406671 0.108218156 -0.14923012
000110 66 68 82 3d 74 c0 9c bd 20 d1 a4 be 9c 00 83 3c
       0.06367569 -0.07653895 -0.321908 0.015991502
000120 f2 18 83 3d f1 a6 f0 bd ab 1c bb bc e3 de 85 bd
       0.06401242 -0.117505915 -0.022840818 -0.06536653
000130 fb b2 11 3e 32 40 07 bf e8 36 58 bd 90 82 b7 3d
       0.14228432 -0.5283233 -0.052786738 0.0896045
000140 1f 9e b6 3c 97 30 19 be 62 e3 b1 be c4 7a 6c bc
       0.022292195 -0.14959942 -0.34743792 -0.0144335665
000150 a2 ba ac 3e 30 6d 94 be 11 a4 9b 3d 21 67 04 3d
       0.3373614 -0.28989553 0.075996526 0.032324914
000160 3c a0 b5 3d c2 fa a0 3d a3 71 57 3e d1 36 45 3d
       0.08868453 0.07860328 0.21039443 0.04814798
000170 01 f4 1f 3e 77 83 e8 bd 36 4c 15 3e b8 63 43 bd
       0.15620424 -0.113532 0.14579853 -0.04770252
000180 28 56 1a 3e 9e 76 50 3d 86 41 23 39 46 ae bd bd
       0.15071929 0.050894372 0.00015569301 -0.09261756
000190 e5 23 c7 3d 39 32 24 3d 23 7f d1 3d 1c cd 9d 3d
       0.09723643 0.04008696 0.102293275 0.07705137
0001a0 71 35 f1 bd f5 1a 3b bc 7f 71 80 be 58 08 1c bc
       -0.11777771 -0.011420001 -0.2508659 -0.009523474
0001b0 49 ce 0f 3d cb 47 08 bd 44 8b 91 bd c1 e3 27 bd
       0.03510884 -0.033271592 -0.07106641 -0.040988687
0001c0 2d 84 98 be 72 53 64 3e 3b 47 83 bc 9d 6a 05 bd
       -0.29788342 0.22297457 -0.016025176 -0.032572377
0001d0 4f 70 ad 3b 3b f0 ee 3b 4b 55 c5 bd f4 41 2a 3d
       0.0052929292 0.0072918213 -0.09635409 0.041566804
0001e0 3a ed 8c be dd 82 9f 3b 84 85 c9 3b 92 ef 47 bd
       -0.2752474 0.004867895 0.0061499495 -0.048812456
0001f0 8c 43 65 3c 26 65 c4 3d da b0 d5 3d 66 ad d7 bd
       0.013993155 0.09589605 0.104341224 -0.1053112
000200 ba 2e e8 be bd ce 38 be 62 e5 0b 3e b5 51 8e bd
       -0.4534815 -0.18047614 0.13661721 -0.06949178
000210 43 fe e1 3d 49 ee 84 be 44 5a 70 bd b7 dc 11 bc
       0.11034825 -0.25963047 -0.058679834 -0.00890272
000220 62 3a b2 bd c0 25 f9 bd d9 0b ba bc c2 ee 47 3d
       -0.08702542 -0.12165403 -0.022710728 0.04881168
000230 af 6a 9b 3e f4 20 73 bd e8 01 89 3e c4 1d 66 3e
       0.3035483 -0.0593576 0.26759267 0.22472292
000240 01 7f ee bd 12 6d 3b 3c d3 f3 8a bd f2 4c ba bc
       -0.11645318 0.011439579 -0.06784787 -0.022741769
000250 cf 29 1d bd b0 70 96 be 5f 7e a5 be bf ff e0 be
       -0.03836995 -0.2938285 -0.32322976 -0.4394512
000260 91 23 00 bd 0b f2 5a ba 58 8b 35 3c b6 b8 a5 3d
       -0.03128392 -0.0008352107 0.011080585 0.080918714
000270 12 fe 31 be 78 ec 8f bd a6 36 76 bd f1 e0 41 3d
       -0.17382076 -0.07027525 -0.06011071 0.04733366
000280 b5 d8 94 bd 05 fc 9c bd 3b 1e 77 3d f0 90 90 3d
       -0.07267896 -0.076652564 0.060331564 0.07058895
000290 c9 b5 67 3e ad d3 a7 3e 2a c2 9a 3e d9 ef 92 be
       0.2262794 0.32778683 0.3022626 -0.28698614
0002a0 a5 5a 2b bd 8e a1 10 be ce d3 62 bd 94 33 35 be
       -0.041834492 -0.14124128 -0.055377774 -0.17695457
0002b0 1e 93 42 be c4 3a d5 3b 08 10 9b 3e 56 1d 33 3e
       -0.19001433 0.0065072495 0.30285668 0.1749166
0002c0 8f 21 14 3d 24 04 d4 3c 4a 1c b0 be ac 38 a2 bd
       0.036164816 0.02588088 -0.34396583 -0.079209656
0002d0 53 3b e1 bd d3 94 86 3c 34 68 1c bd ea c1 00 3f
       -0.10997643 0.016428387 -0.038185313 0.5029589
0002e0 0f 29 21 be 09 67 d4 be 27 ab 3e bd c5 77 b1 bd
       -0.15738319 -0.4148486 -0.046549942 -0.08665422
0002f0 4a c0 4e 3c ff 01 7f be 50 fc b1 bd 1e dc 8b 3e
       0.0126190875 -0.24903105 -0.08690703 0.27316374
000300 c9 fb 80 bd 21 fa b4 bd ab e8 69 bc e8 6a 8f 3b
       -0.06298024 -0.08836771 -0.014276664 0.004376758
000310 f0 ab 9b be 4e c0 7c bd 73 06 f3 3d a7 e9 cb bc
       -0.30404615 -0.061706834 0.118664645 -0.024891688
000320 97 7e ce be 13 1c 0b 3f 81 8a 9b bd 99 dd 4e 3e
       -0.40330955 0.5433971 -0.07594777 0.2020172
000330 d3 35 35 3e df 62 0f 40 02 c6 7e 3d a2 bc 54 bc
       0.17696314 2.2404096 0.062200554 -0.012984427
000340 a2 ca 60 bd b2 c0 c3 3d b1 31 30 3e 6f b2 9b bd
       -0.054880746 0.09558238 0.17206456 -0.07602393
000350 4f e6 a7 be dc 15 b2 3d 9c 01 cc bd 59 96 e8 bd
       -0.327929 0.086955756 -0.099612445 -0.113568015
000360 12 b5 7c bd 9a 9e 07 3e 20 95 e0 bd 7b 0d 45 3e
       -0.06169612 0.13244095 -0.10965943 0.19243424
000370 84 5d 6f be 87 16 d1 3c 2b e1 7d be 38 30 af bd
       -0.23375517 0.025523437 -0.24792926 -0.08554119
000380 a7 92 94 be 4c d1 2e bf 2f 24 91 be 16 f8 13 bd
       -0.29018137 -0.6828811 -0.28347918 -0.036125265
000390 e4 41 42 bd 58 37 80 bd b2 36 24 bd e1 7f c0 bd
       -0.04742612 -0.06260556 -0.040091224 -0.09399391
0003a0 88 82 8a 3d 81 7c d6 3b e4 35 07 bc a3 fd 31 3e
       0.06763178 0.0065456037 -0.008252595 0.17381911
0003b0 a1 13 d2 3f 29 90 4b bd 8e c7 d4 bc 02 d2 21 3e
       1.641224 -0.04969803 -0.025974061 0.15802768
0003c0 5f 85 5d 3d 76 48 b2 3c 04 1f 4f 3c 22 f7 50 bd
       0.05408227 0.021763068 0.012641672 -0.051016934
0003d0 d8 2a 9e be 69 87 ae 3d f6 aa 10 3d bc 55 16 3a
       -0.30892062 0.08521921 0.03531929 0.00057348213
0003e0 84 39 2e bc b4 4d a5 bd 49 f7 a0 be f0 18 b4 be
       -0.01063383 -0.08071461 -0.31438664 -0.35175276
0003f0 14 33 81 be b4 39 0d bf 98 6c 3f 3c cc 0d 9b 3e
       -0.25234282 -0.55166173 0.011683606 0.30283964

fc2.bias f4 [128]
000000 31 7f e4 3d fd a7 f4 bd 72 1b 0f 3e 87 98 a8 bd
       0.11157072 -0.11946104 0.13975313 -0.08232217
000010 54 db b9 3c 66 f2 e4 3c e0 04 1c 3d 6b 9c 57 3d
       0.022687592 0.027947616 0.038090587 0.052639406
000020 d4 60 0c 3e 28 79 26 3d db bf 4c bd 2c 20 d4 bd
       0.13708812 0.040642887 -0.049987655 -0.10357699
000030 24 92 51 bd c2 78 c3 bc f4 99 e2 3d 08 66 14 3d
       -0.05116476 -0.023861293 0.110645205 0.036230117
000040 fc 1a de bb ea 6a 5c 3d ea 0a 33 bd c9 58 9f bd
       -0.006778119 0.0538129 -0.04371158 -0.07780606
000050 43 11 49 bd e6 ce 24 bc 76 85 4f 3d 4a b5 7a bd
       -0.049088728 -0.010059094 0.050664388 -0.061208047
000060 66 a1 53 bd 1d 65 e5 3c 99 18 9f bd 56 fc 83 3c
       -0.051667593 0.028002316 -0.077683635 0.016111534
000070 22 0c 06 be 4b 78 8e bd ca 33 31 bd 7f 85 99 bd
       -0.13090566 -0.06956538 -0.04326228 -0.074961655
000080 f0 0a 9f 3c 9a 27 19 bd 8d 0a 2e bd e0 b6 ad 3d
       0.019414395 -0.037391283 -0.04249053 0.08482146
000090 b3 58 d1 3d 03 95 be bd a4 ea 47 bd 89 fa 90 bc
       0.10221996 -0.093057655 -0.048807755 -0.01769759
0000a0 60 eb 7b 3d f8 92 86 bd a0 d9 e2 3d f7 a5 28 bd
       0.061503768 -0.06571001 0.11076665 -0.0411739
0000b0 0d 25 47 3c 6a 02 64 bd cf 30 2a 3d 4f 4e e5 3b
       0.01215483 -0.055666365 0.041550454 0.0069978605
0000c0 25 d1 c1 bd ff ba 2c 3d bf 36 68 3c c8 92 48 bd
       -0.09463719 0.04217052 0.014173209 -0.048968107
0000d0 f7 bc 59 3d ff e6 44 bd 11 bc 30 bd 53 aa bf 3d
       0.053158727 -0.048071858 -0.043148104 0.09358659
0000e0 e9 e4 b6 3d 0e 59 a1 bd 49 2c 7f 3d 0c 54 a6 3d
       0.0893038 -0.07878314 0.062298093 0.081214994
0000f0 b2 db d4 3d 97 b9 79 bd 34 91 4d bd 58 0d 24 bd
       0.10393466 -0.060968008 -0.050187305 -0.040051788
000100 74 ac 11 3d b8 05 03 be 0f 50 22 bc 2c df ad bc
       0.035564855 -0.1279515 -0.009906783 -0.02122458
000110 f9 7d d5 3c ff 4d 27 3c 08 b0 24 bd fc 86 5e bd
       0.026061045 0.010211467 -0.04020694 -0.05432795
000120 d8 96 40 3a 00 2c bb 3d fd 48 c3 3d 12 22 78 bc
       0.0007346696 0.09139252 0.09535406 -0.015144842
000130 ac 08 90 bd c8 8b 98 bc 1a e1 93 bd 06 5d 8c 3d
       -0.07032904 -0.01862134 -0.07220669 0.0685368
000140 17 57 05 be 24 a9 cd bd 32 c9 85 3d 6e cd bb 3d
       -0.13021503 -0.10042027 0.065325156 0.09170042
000150 19 aa bc bc 6a 7b b4 3d af b8 c9 bd 6e d0 82 bb
       -0.023030328 0.08812602 -0.09849679 -0.003992132
000160 64 13 5f bd cc 51 ce bd 00 f7 bd bc 50 52 4d bd
       -0.05446185 -0.10074195 -0.023189068 -0.050127327
000170 a5 1e b9 3d 2d dc 0b bc 28 90 00 bd b4 f3 8c bd
       0.09039048 -0.008536381 -0.031387478 -0.0688242
000180 e3 96 09 bd 85 ca 9d bd 59 26 05 3d 1d 0a fe bc
       -0.033591162 -0.07704643 0.032507274 -0.031010682
000190 d0 72 6a bc bf 3d 77 3d 77 50 4a bd 1d 36 07 3c
       -0.0143096 0.06036162 -0.049393144 0.008252648
0001a0 5d 08 f9 bc 62 93 8a bc 26 fc 1d 3d 4c ba 59 bd
       -0.030399496 -0.01691598 0.038570546 -0.053156182
0001b0 09 4d 25 bd 1b e1 4e bd ba a5 25 3d 08 cc 3b 3c
       -0.04035667 -0.050507646 0.040441252 0.011462219
0001c0 7d 33 be bc ad 70 b8 bd cb 1d e4 bd 25 45 99 bc
       -0.02321791 -0.09005866 -0.11138495 -0.018709728
0001d0 a0 8c 85 ba 71 8b 9e 3b ee 42 aa bd d4 3a 8e 3d
       -0.0010189004 0.0048384 -0.08313547 0.06944814
0001e0 4c f5 e3 bb 06 bd a5 bc 18 09 40 bd 0f d3 af bd
       -0.006956732 -0.020231735 -0.046883672 -0.08585178
0001f0 15 74 9b 3d c8 a7 a8 bd 16 d4 aa 3d 56 95 0f bc
       0.075905 -0.08235127 0.083412334 -0.008763632
